checkpoint_actor.pth (torch_old, 88990 bytes, 10 tensors)

fc1.weight f4 [128, 33]
000000 d4 1f e1 3d 63 4f 6f 3d e5 7a 9e bc 6c 06 f7 3c
       0.10992399 0.05842532 -0.01934571 0.03015443
000010 9f 9f 0d be cb f7 96 bd af e8 71 be ee bc 28 3d
       -0.13830422 -0.073714815 -0.23623918 0.041195802
000020 2b 2b 84 3d 13 ec af 3c 9c 3b 18 3c 1f eb c0 3d
       0.06453546 0.021474874 0.009291556 0.09419846
000030 94 2f 2a bd dd 17 81 bd da 03 fb 38 ce ea 96 bc
       -0.04154928 -0.0630338 0.0001196933 -0.01842251
000040 56 95 80 3e 75 20 e4 be fd ef 0c bf bc 61 89 be
       0.25113934 -0.44556013 -0.55053693 -0.26832378
000050 55 bf 8e 3b c9 10 94 3c 73 a6 9a bd 9c ed d1 bd
       0.0043563046 0.01807441 -0.07551279 -0.102503985
000060 7d 2f 3c bc 62 55 ad 3c bd 33 d9 bd 6e a9 c2 3e
       -0.011485931 0.021158878 -0.106055714 0.3801989
000070 04 9d 0f 3e 5d cd a3 3d 7c 70 d4 be a4 bb 94 bd
       0.1402474 0.07998154 -0.4149207 -0.07262352
000080 ed 85 37 bf ac b8 1a 3d 95 29 dc 3d 8c b5 06 bc
       -0.7168873 0.037773773 0.10750119 -0.008221995
000090 e7 ab 9c 3e 44 fb c3 3d b5 aa a5 3e 38 9f 82 3d
       0.305999 0.095694095 0.32356802 0.06378025
0000a0 34 07 06 3d c0 5d 42 3d f1 be 9a 3c b0 da c5 3c
       0.032721713 0.04745269 0.018889876 0.02415213
0000b0 7b 68 2f bb b1 76 60 bc 07 0a 98 3c 08 2f 21 3d
       -0.0026765156 -0.013700173 0.018559469 0.039351493
0000c0 af 3a 6e be 97 a0 63 3e cf 60 35 3f 50 77 80 be
       -0.23264574 0.22229229 0.70850843 -0.25091028
0000d0 9a 2e b6 bd c4 70 6f 3c f9 b1 a7 3b 61 41 84 3b
       -0.08895607 0.014614288 0.0051176515 0.004036114
0000e0 8b b3 a8 3c e2 c2 05 3d 25 3c 5b bc f0 ed d5 bc
       0.020593425 0.032656558 -0.013381039 -0.026114434
0000f0 83 18 25 3d 8b aa 5f 3e f1 c8 37 bd 97 7d 1f bd
       0.04030658 0.218424 -0.044869367 -0.03893813
000100 25 83 31 bd c4 58 3f 3f e0 8a ac 3c 1d 6d 4a 3e
       -0.04333796 0.7474482 0.021062315 0.19768186
000110 11 80 41 3d 30 b1 80 3e 03 bb dc be 50 c0 9e bd
       0.047241274 0.25135183 -0.4311143 -0.077515244
000120 7b df fb bc 90 e5 7d bc b9 cc 4d 3e b1 4c d5 3d
       -0.030746212 -0.0154966265 0.20097627 0.10415018
000130 95 f4 4e 3d ec 08 d7 bd 69 30 73 3c f5 8d 34 bc
       0.05052622 -0.104997486 0.014843085 -0.011020173
000140 c7 9d 50 bd 89 00 d6 bd fe 7a cf be 4a 14 ff 3e
       -0.05093172 -0.10449321 -0.40523523 0.49820167
000150 03 ca d6 3c c3 33 b6 3e 68 34 90 bb f7 d0 a1 3d
       0.026219374 0.35586366 -0.0044007786 0.07901185
000160 b1 dd f6 3b 81 9b d4 bd 63 85 59 3d 9b 73 e8 3c
       0.007533752 -0.103812225 0.053105723 0.028375437
000170 71 51 dd 3d dd 61 5e 3e 5c 75 3c 3e cb 59 97 3d
       0.10806549 0.2171702 0.18404144 0.073901735
000180 17 93 4f be f8 b7 76 bd 36 bc 15 bf a2 72 ac 3d
       -0.20270954 -0.06023404 -0.5849031 0.08420302
000190 85 69 49 be 78 60 58 be 7f a6 92 3d 62 16 84 be
       -0.19669159 -0.2113055 0.07160663 -0.25798327
0001a0 b1 ae 27 bf 46 de c1 3d c5 d1 be bc f3 2e 9d 3d
       -0.6550093 0.094662234 -0.023293385 0.076749705
0001b0 a8 62 5b 3d da 6f ec bc f8 cb 3f 3d 82 ca b8 bd
       0.053560883 -0.028861929 0.04682538 -0.09023
0001c0 d3 48 2c be 0a 7f de 3d b9 5a d0 bd 2e 30 6a 3e
       -0.16824655 0.108640745 -0.10173554 0.22869942
0001d0 c5 16 5e 3e 6f bf 5f bc 10 b5 a2 be 20 a1 41 be
       0.21688373 -0.013656481 -0.31778765 -0.1890912
0001e0 ce 4a ed 3d 2d b4 1d 3d a5 de 1a 3e 58 2b c7 3d
       0.115865335 0.038501907 0.15123995 0.09725064
0001f0 ee 29 26 3e 7c f7 64 3e e7 be d4 bd b2 18 a2 bd
       0.16226932 0.22360033 -0.10387974 -0.079148665
000200 ca 3f 63 3d 51 94 56 bc f5 c0 94 3d 9f 90 aa 3e
       0.055480756 -0.013096885 0.07263366 0.33313462
000210 0b 8f d1 3e f1 3c 89 3d 31 28 18 3c ff 25 2d 3e
       0.40929446 0.06701077 0.009286926 0.16909026
000220 a2 f2 f2 3e b9 6d 2e be 91 ca bb be 32 fc 7a bb
       0.4745074 -0.17034043 -0.36677983 -0.0038297293
000230 26 37 66 be 6a 71 33 39 2f 36 db 3d e7 92 30 bd
       -0.22481975 0.0001711302 0.10703694 -0.043108847
000240 41 00 b7 3a 44 b7 78 be 01 65 17 bc f5 90 24 bd
       0.0013961868 -0.2428866 -0.00924039 -0.040177304
000250 74 6f d6 3e 17 1f 97 be 85 d3 d5 3e 27 8a 34 3e
       0.41881907 -0.29515907 0.4176294 0.17630826
000260 8d 21 ee 3c 7b b5 08 3c d2 aa d9 ba da d2 8d bd
       0.029068733 0.00834405 -0.0016606695 -0.06924982
000270 e5 87 bd 3c 78 83 c8 3b ff 5b d8 ba 57 16 cc be
       0.023136089 0.006119188 -0.0016506909 -0.39860794
000280 24 5c 1d 3d 2d 76 15 bd 01 36 aa 3e 5f 0e a6 bd
       0.03841795 -0.036489654 0.33244327 -0.0810821
000290 c0 d7 1e be e0 59 d5 3d d4 5e 0f bc d0 e9 36 3e
       -0.1551199 0.10417533 -0.008750636 0.1786263
0002a0 3a 9c 28 bd 40 2f 11 3f 0d 18 73 3e 9d fb f8 3d
       -0.041164614 0.5671272 0.23739643 0.121573664
0002b0 c5 2b b0 bc 08 46 6f 3e 80 2b 13 bd d8 12 bf 3d
       -0.021505246 0.23366559 -0.035930157 0.09329766
0002c0 0a 7b 8c bd b3 12 b9 3d 98 f2 e3 bb 72 ec 37 be
       -0.06859405 0.0903677 -0.0069564097 -0.1796129
0002d0 9c 1f 47 be d5 48 2b be c5 1c 7b bf e5 e6 05 3f
       -0.19445652 -0.16727002 -0.98090774 0.5230544
0002e0 01 3a 79 be 32 83 7e 3c ca 5d 10 3d f5 0a f5 3a
       -0.24338533 0.015534209 0.035245694 0.0018695282
0002f0 94 9d 1e bd fa c5 68 bd 42 37 61 bc 36 b6 66 bc
       -0.038724497 -0.05682943 -0.013746085 -0.014081528
000300 cb 20 4f be 05 6a 10 3d f1 17 48 bd 8a d4 61 3e
       -0.20227353 0.035257358 -0.048850957 0.22053733
000310 aa 93 63 bd fb 7b 0d bc 29 08 55 bd 3f d9 3b 3d
       -0.055560745 -0.008635516 -0.052009735 0.04586148
000320 97 a2 8a be 17 a9 d6 3e 51 10 a9 be b5 ed 3c 3e
       -0.2707717 0.4192588 -0.3302026 0.18450053
000330 ee 67 31 3e 55 d7 09 bd 8b a5 85 3d b7 b8 25 bc
       0.17324802 -0.033652622 0.065257154 -0.01011484
000340 e5 fb 40 3d d1 7c bf 3d fc 8c d6 bd dc 9f 10 3e
       0.047115225 0.09349979 -0.104761094 0.14123482
000350 f7 ed 8a 3e bf 1f b8 bd 3a 40 06 3e 47 70 ea be
       0.27134678 -0.0899043 0.13110438 -0.45788786
000360 5a 1a 9f be 36 48 c5 3e 7f a2 a6 bd e8 a0 ea bd
       -0.31074792 0.38531655 -0.081364624 -0.11456472
000370 a9 a2 03 3e 49 0b e2 3c ed 2d 28 3d 2f f8 af 3d
       0.12855019 0.027593272 0.041059423 0.08592259
000380 5b bd e4 bc 8b cd 65 bd 42 49 48 3d 30 70 bd bb
       -0.027922323 -0.056104224 0.04889799 -0.005781196
000390 f5 38 22 3d 93 d7 66 bd 21 c1 15 bf fe f6 0f be
       0.0396051 -0.05635793 -0.58497816 -0.14059064
0003a0 51 25 a5 bd 8e dc 3a be fd a3 be be 93 22 cb 3c
       -0.08063758 -0.18248197 -0.37234488 0.02479676
0003b0 3e e2 f2 3e 47 81 07 3e 5f 17 ca bc 98 8f 07 bc
       0.47438234 0.13232909 -0.024669347 -0.0082739815
0003c0 e8 25 f9 3d e8 e9 be bd 44 35 9e 3d 71 ea f8 3c
       0.12165433 -0.09321958 0.07725003 0.030385228
0003d0 09 6c a9 3c ec f4 58 3d 31 29 67 3d 34 d2 66 3e
       0.020681398 0.05296795 0.056435768 0.22541124
0003e0 dd e8 10 3f 14 be f0 be 3c 13 46 be 66 f7 1a bd
       0.5660532 -0.47020018 -0.19343275 -0.037833594
0003f0 1c d1 17 bd 2c 59 de bd 86 9d 5f bd 4c 5e b3 3d
       -0.037064657 -0.10856852 -0.054593585 0.0875822

fc1.bias f4 [128]
000000 f0 fd 7e be 90 b2 ae 3d 8c a7 97 be a3 26 16 3d
       -0.24901557 0.08530152 -0.29620016 0.03665794
000010 97 ae 8e 3e fe 3e 8e 3e f6 91 84 3e 90 cd f7 bd
       0.27867576 0.27782434 0.2589261 -0.12099755
000020 aa 3f 84 be c0 c0 c8 bd 0a eb dd bd 29 48 98 be
       -0.25829822 -0.09802389 -0.10835846 -0.29742554
000030 45 e1 a5 3d cf c0 60 bc b1 da ec bd 39 cb 8e 3c
       0.080996074 -0.013717844 -0.115651496 0.017430888
000040 94 1e 0e 3e e5 68 39 be a8 ad 9b be e7 79 74 3d
       0.13878852 -0.1810642 -0.30405927 0.059686568
000050 c4 b8 54 be ba 65 e5 3e bb 09 9c be 45 0e 13 3e
       -0.20773607 0.44804174 -0.30476174 0.14360912
000060 d8 82 6b be b1 26 2c 3c 47 43 a0 bd 5e 9a 9d be
       -0.22999132 0.010507272 -0.07825332 -0.30781835
000070 7f 4f 94 be fa d5 fd 3d ce e5 c1 be 21 87 14 be
       -0.289669 0.123943284 -0.3787064 -0.14504673
000080 03 a5 8f bd df db f9 bd 15 92 78 be 1d 6f 37 3e
       -0.07013895 -0.1220014 -0.24274476 0.1791348
000090 d4 c3 83 be ad e8 59 bd b3 ee fb 3d 55 f2 b0 bd
       -0.25735343 -0.053200413 0.12301388 -0.08639971
0000a0 50 47 b9 bd 50 7f 58 3e d0 85 0d be fd ad 45 bd
       -0.09046805 0.21142316 -0.13820577 -0.04826163
0000b0 35 70 ac be 17 66 11 3e 6d 2b 75 be 21 19 a0 be
       -0.33679357 0.141991 -0.23942347 -0.31269172
0000c0 4d 83 9d 3e f8 a2 c3 bb 33 dd 9d 3d eb 2d 3a 3e
       0.30764237 -0.005970355 0.07708206 0.18181579
0000d0 db 42 1a bc 55 0f 45 be 55 b8 41 bd 16 5f 47 be
       -0.009415354 -0.1924413 -0.047294933 -0.19469866
0000e0 1f e6 57 be 8e b6 7e bd bd 99 38 3e 97 7a 77 bd
       -0.21083878 -0.062185816 0.18027397 -0.060419645
0000f0 40 27 50 be 2f b3 4e be 78 d5 c0 bc a4 09 c7 be
       -0.20327473 -0.2018554 -0.02353929 -0.38874543
000100 aa 47 91 be 32 f5 80 bd 2d 62 67 3d bb de e3 3b
       -0.28374988 -0.06296767 0.056490112 0.006954042
000110 bb 53 b5 be 47 15 8f be 2d a2 a0 be 67 49 77 be
       -0.35415444 -0.2794592 -0.3137373 -0.24149095
000120 43 34 38 be 9f 81 8b bc b9 e3 4e be 06 89 1d 3e
       -0.17988686 -0.017029582 -0.20204057 0.15384302
000130 fe b3 0a be ef 86 46 be 40 00 88 bd b0 de 1d be
       -0.13545224 -0.1938741 -0.06640673 -0.1541698
000140 6f b9 40 3e 2a a6 82 3e 73 3e 64 3d b7 a6 eb bd
       0.18820737 0.25517398 0.05572362 -0.11506408
000150 b4 12 b8 3c 53 26 fa be db 10 c0 3b ae 03 39 be
       0.022469856 -0.48857364 0.0058613843 -0.1806781
000160 8d 84 bf bd f4 61 ee bd e1 28 af be 20 85 0b 3d
       -0.09351454 -0.11639777 -0.34210876 0.034062505
000170 9b 9d bc be d8 86 7f 3e b4 86 35 3e 83 d8 00 3c
       -0.36838993 0.24953783 0.17727166 0.00786412
000180 7b 58 08 bd d0 d5 74 be d8 e4 08 bd bd 45 01 bd
       -0.033287507 -0.23909688 -0.033421367 -0.03156065
000190 fb 77 41 3d 42 1c fc bd 88 62 ca 3b 3c 91 48 be
       0.047233563 -0.12310077 0.0061762966 -0.19586653
0001a0 e6 4d b0 bd e9 03 5b be 01 b7 e6 bd 8f db 6d be
       -0.08608608 -0.2138821 -0.11265374 -0.23228286
0001b0 be bb 47 bd 96 fe 18 bd 97 3f 54 be c1 2a 1b 3d
       -0.04876303 -0.037352167 -0.20727383 0.03788257
0001c0 f4 eb 83 bd 3f d6 ec 3d 44 b9 87 3d 65 74 e9 bd
       -0.06441489 0.11564302 0.066271335 -0.113991536
0001d0 60 3b f5 bd 81 99 eb bd ea 4c 2b 3e 7d a8 29 3e
       -0.119742155 -0.11503888 0.16728559 0.1656818
0001e0 5e 36 70 be 88 2b 90 bc 42 cc 42 be a4 4a db ba
       -0.2345824 -0.017598882 -0.1902323 -0.0016730619
0001f0 03 2c 1c be b5 58 03 3c 2d 21 9f 3d 06 35 11 3d
       -0.15251164 0.008016755 0.0777 0.035450958

fc2.weight f4 [128, 128]
000000 cc b9 97 be 81 01 7c 3e 13 32 21 be b1 42 8a 3d
       -0.2963394 0.24609949 -0.15741758 0.067510016
000010 d4 39 b9 bd d3 3a 26 3e 15 62 8c be 0c 42 02 3e
       -0.09044233 0.16233377 -0.2741858 0.12720507
000020 0f e0 1e be d2 98 e5 be 45 15 d2 bb 8a fa 34 be
       -0.15515159 -0.44843155 -0.006411227 -0.17673698
000030 d7 1f 1c bc 66 71 1b be d7 d1 f1 bc df 20 7b 3e
       -0.009529076 -0.15179977 -0.029519005 0.24524258
000040 8d 13 9f be e8 af 9f bd ea 88 e8 3d c4 25 be bc
       -0.31069604 -0.07797223 0.11354239 -0.023211367
000050 12 fa 03 be 72 e9 8f bd 65 6d 61 be 5a 3b 5b 3d
       -0.12888363 -0.07026948 -0.22014387 0.0535234
000060 af 5b 9e 3e 9c 55 82 3e 54 7b 52 bd 22 b3 a3 bb
       0.30929324 0.2545594 -0.051387146 -0.0049957195
000070 5b aa 3f bd 63 e8 e1 3d 71 4a 9e bc 72 a1 04 3f
       -0.046793323 0.110306524 -0.019322606 0.51808846
000080 a3 c5 ad bc e1 9e 4a be b4 48 b1 bd 78 cd 8b be
       -0.021212405 -0.1978717 -0.08656445 -0.27305198
000090 cb be 0a 3e 24 f9 f4 3d 86 76 53 bd b8 bc 06 be
       0.13549344 0.11961582 -0.051626705 -0.13157928
0000a0 38 f4 55 be 82 04 f9 3d 8b 00 9c 3e 99 4c 90 be
       -0.20893943 0.12159063 0.30469164 -0.2818344
0000b0 7b 66 f6 bb cd d6 77 ba cc 69 af 3d 2e e7 d9 bd
       -0.007519541 -0.000945431 0.08565101 -0.10639797
0000c0 4d 63 be be ef ae 83 be da 86 86 3e af 5d 96 3e
       -0.37185135 -0.257194 0.2627476 0.2936835
0000d0 95 8f d2 3d 51 81 b2 3b 8e 03 ff bd be ae a5 3e
       0.10281292 0.0054475446 -0.1245185 0.3235988
0000e0 11 6d 53 3d 0e 5f 79 be c6 60 07 3e 82 e0 5e 3e
       0.051617686 -0.24352667 0.1322051 0.2176533
0000f0 db 61 20 be 08 0b 56 be 4c f4 00 3c 62 0e 73 3e
       -0.15662329 -0.20902646 0.007870745 0.23735955
000100 a9 7e d9 be a9 f4 1e be 88 89 3b 3e a6 d7 91 3e
       -0.42479447 -0.15523018 0.18314183 0.2848484
000110 3e 09 33 3e 39 a2 3a 3e 37 4d d9 3d aa a8 75 be
       0.17483994 0.18225946 0.10610431 -0.23990121
000120 2a e8 bc 3e d5 23 05 be c0 e9 b3 3e 7f 2c 03 bc
       0.36895877 -0.1300195 0.35139275 -0.008006214
000130 0c 2a 77 3e 44 7e 9f 3e 8d e6 4c be 55 c2 e9 be
       0.24137133 0.3115102 -0.20009823 -0.45656076
000140 9a 6c c4 be 2b 71 a4 be 75 ff 5a 3e 47 33 cf be
       -0.38364106 -0.3211759 0.21386512 -0.4046881
000150 52 9a e1 be a8 3f b6 bd 36 ff 40 be e7 8e 42 3e
       -0.4406305 -0.0889886 -0.18847355 0.18999825
000160 d4 35 38 3e 9f d1 04 bf 09 e3 b8 be 67 e4 1f 3e
       0.17989284 -0.51882356 -0.36110714 0.15614472
000170 4f 75 2e bf b0 6c 4e 3e dd 03 97 bd c4 e5 8a 3e
       -0.6814775 0.20158648 -0.07373784 0.27128422
000180 4e 94 58 3d 99 17 c2 3c 40 8f 46 3d b3 ed 1d be
       0.05287581 0.023692893 0.048476458 -0.15422706
000190 49 f3 7a be bf 19 2c be 74 87 cf 3b 8e b5 0f 3f
       -0.24506868 -0.16806696 0.006333286 0.56136405
0001a0 7b ea 03 bc 12 e1 47 3e 69 0d cd 3e 10 a2 ed be
       -0.00805151 0.19519451 0.40049294 -0.46412706
0001b0 77 45 67 bd 65 95 7b be b0 5c 85 bd b5 70 68 be
       -0.05646273 -0.24568708 -0.06511819 -0.22699244
0001c0 14 25 32 be f2 65 7b ba a5 c9 22 3d 31 aa 77 be
       -0.17396957 -0.0009590081 0.039743084 -0.24186017
0001d0 fc 97 1d 3d c3 ee 80 be fc 79 a5 be 9b 6d 79 be
       0.03847502 -0.2518216 -0.3231963 -0.24358217
0001e0 e2 48 26 3e b3 95 75 bd 99 f9 40 bc a7 ad f1 bc
       0.1623874 -0.059957217 -0.011778259 -0.02950175
0001f0 01 61 dc bd 2d 3e 5c 3e 24 f3 25 be 30 31 5e be
       -0.107606895 0.21508093 -0.16206032 -0.21698451
000200 d1 97 8e bd 3b 61 c6 be 9e d0 66 3b 50 cc 5b bd
       -0.069625504 -0.38746056 0.003521956 -0.053661644
000210 57 d4 bd bd c5 29 a3 be 8d 03 55 3e cd 18 dc 3d
       -0.09269016 -0.31867805 0.20802136 0.10746918
000220 bc 9d c9 bd 03 ce ea be b4 e3 86 be 5d 25 08 3e
       -0.098445386 -0.458603 -0.263456 0.13295503
000230 11 23 16 be 31 56 72 3d 51 90 29 3d 47 c0 d2 bb
       -0.14661814 0.05916423 0.041397396 -0.0064316127
000240 1c 14 2e be bc ec 35 3e 1d a8 e3 3d 14 05 b6 bd
       -0.16999859 0.17766088 0.111160494 -0.08887687
000250 40 14 32 be f0 df 14 be 44 42 99 3d 13 e9 e5 bd
       -0.17390537 -0.1453855 0.07483342 -0.11226096
000260 c1 bb 21 3e 38 e7 3f 3c d1 f0 00 be e3 b7 ac bc
       0.15794279 0.011712842 -0.12591864 -0.021083778
000270 c5 42 58 be 38 8f a4 bc c8 45 10 be 71 60 a2 be
       -0.2111922 -0.020087823 -0.1408912 -0.31714204
000280 fd 6b 75 bc 0a f6 9f 3e 36 74 e1 bc 1f 2d b1 be
       -0.01497936 0.312424 -0.027521234 -0.34604737
000290 cf ec 38 bd bb 84 0f 3e 5f 91 cb bd 65 6c bc bd
       -0.045147713 0.14015476 -0.09939837 -0.09200362
0002a0 5b 2c 63 be ac cc 52 3d 5e 94 28 3e e8 87 6e 3e
       -0.22184889 0.05146472 0.16462848 0.23294032
0002b0 3b 1f e7 be 22 67 dc bc d6 4d a6 be c3 80 1f be
       -0.45141014 -0.026904646 -0.3248126 -0.15576462
0002c0 60 cc 55 bf 19 9f e0 bd d7 bb 82 bd e2 5b 81 bd
       -0.83514977 -0.109678455 -0.06383484 -0.063163534
0002d0 ba 5f 5a be c1 a0 1f 3e 85 16 18 be da 86 6c bd
       -0.2132558 0.15588666 -0.1485234 -0.057745792
0002e0 71 7d 33 3e 3f df bd 3e f2 3e 17 bd 4a d0 60 3c
       0.17528321 0.37084386 -0.036925264 0.013721535
0002f0 4c 1f d2 bc ed 3f 18 3e ae 0d b2 3d 3b 0d 73 be
       -0.02564969 0.14868136 0.086940154 -0.23735516
000300 8b 7c dc 3d 9d 43 8a bc 3f b2 35 3e 5b 22 56 3e
       0.10765942 -0.016877944 0.17743777 0.20911543
000310 52 33 aa be 0b 1e fb bd 73 00 30 bf 82 e0 85 bd
       -0.3324228 -0.122615896 -0.68750685 -0.06536962
000320 67 85 75 3e aa 79 b9 3e 96 fe 6b be 2d ee d4 be
       0.2397667 0.36225635 -0.23046336 -0.41587964
000330 fe 15 d2 3d ca 91 e2 3d 4d b7 0e 3e 2d bb 4b 3d
       0.10258101 0.11062963 0.13937111 0.04973905
000340 91 fc a2 3d 14 76 8b 3c 8d 20 28 be 61 5b 0f be
       0.079583295 0.017024077 -0.16418667 -0.13999702
000350 32 a9 7d 3e 15 03 6f 3e c4 ae ef bd 73 d1 fb bc
       0.24771574 0.2334102 -0.11703256 -0.030739522
000360 5d 12 94 3e d0 e6 ee bc 57 a8 6b be d6 31 ab be
       0.2892026 -0.029162794 -0.23013435 -0.3343646
000370 d7 65 d1 3e 08 bd f9 3c 55 25 8a 3e 35 36 40 3d
       0.4089801 0.030485645 0.26981607 0.046926696
000380 34 70 98 be 1d e9 b5 3e df e5 ff 3c 6c 71 50 bd
       -0.29773104 0.35529414 0.03123754 -0.050889418
000390 af bb ae 3d 71 fd cd 3e 7c c5 f6 3d 49 24 19 be
       0.085318916 0.40232423 0.12049386 -0.14955248
0003a0 07 a4 9b 3e d3 39 d5 3d 24 59 96 3e a1 fc 05 3d
       0.3039858 0.1041142 0.29364884 0.03271163
0003b0 e1 b7 7b 3d 49 85 af 3e bd 54 c4 3d 9a ae b1 3d
       0.061454657 0.34281376 0.09586475 0.08675881
0003c0 96 27 26 be c3 9d a6 bd 10 9f 70 3e 17 63 24 3e
       -0.16226038 -0.081355594 0.23498178 0.16053425
0003d0 dd 9c 98 3e 3e d8 d8 3e 41 c9 8a be bb 33 cb bc
       0.29807177 0.4235248 -0.2710667 -0.02480494
0003e0 d7 93 e3 be 7a 76 63 be 33 56 d0 3d b6 48 c3 3d
       -0.4444873 -0.22213164 0.10172691 0.09535353
0003f0 2a 3f ba bd 37 4d 0b 3e d1 67 b6 3d ee 95 87 be
       -0.09094079 0.13603674 0.0890652 -0.26481575

fc2.bias f4 [128]
000000 6f 05 b4 3d dc 4d ba be 39 55 86 be 20 15 c5 3d
       0.08790099 -0.36387527 -0.26236895 0.0962317
000010 57 f5 e8 bd 6f f1 86 be b4 6c c0 be 10 38 16 3e
       -0.1137492 -0.26356074 -0.37582934 0.14669824
000020 1d d3 41 be 1d e7 b7 be 8c 10 7f 3d b4 c7 83 3e
       -0.1892819 -0.35918513 0.06227164 0.257383
000030 ed 17 91 be 2e f5 cc be 2e 40 b9 bd 68 2d da be
       -0.28338566 -0.40030807 -0.090454444 -0.42612767
000040 8a 87 cf 3d 17 d5 23 be c7 44 21 be b2 0b 6d bd
       0.10133274 -0.15999256 -0.15748893 -0.05787248
000050 a9 05 1f be 06 ee c3 be 2b a6 77 3d a3 21 87 39
       -0.15529503 -0.38267535 0.060461204 0.00025774268
000060 98 e8 42 be 05 ca 1a be 89 16 8e bd 6d ef 9b bd
       -0.1903404 -0.15116127 -0.06937892 -0.07614026
000070 3c ac 89 bd 09 68 d8 bd 9d 52 b7 be 12 90 5a 3d
       -0.06722304 -0.10566718 -0.35805216 0.053360052
000080 84 c6 5e 3d 00 1e 68 bd 95 fe 97 bd 03 f4 bc be
       0.054388538 -0.056669235 -0.074216045 -0.36904916
000090 72 d7 46 bd e3 e7 f2 bd c6 ec 68 be 7a b8 70 be
       -0.04854531 -0.11860635 -0.22746572 -0.23507872
0000a0 4e a4 c5 3b d9 6e b6 be 53 93 e5 be fa f0 76 be
       0.0060315495 -0.35631445 -0.44838962 -0.24115363
0000b0 66 6a 29 3d 50 ad b2 be cd c7 14 3e 29 64 ee bd
       0.041361235 -0.34897852 0.14529343 -0.11640198
0000c0 44 02 8b bd d4 24 aa 3d f3 0e 2d bd 07 98 1c 3e
       -0.067875415 0.08307806 -0.042250585 0.15292369
0000d0 2f da 12 bf 8d 48 6d be 6b 2d 13 be 63 30 17 3e
       -0.5736417 -0.23172207 -0.14372794 0.14764552
0000e0 d6 35 d8 3c 6c 09 8a be 55 47 14 be 36 12 96 3d
       0.026392858 -0.26960313 -0.14480336 0.07327692
0000f0 37 b8 75 bb 11 59 49 be 73 42 0c be 35 71 36 bd
       -0.0037493834 -0.19662882 -0.13697223 -0.044541556
000100 a0 0c f5 be 3e 57 40 3e 57 7c d9 be 5c 8b e3 3b
       -0.47861195 0.1878328 -0.42477676 0.006944103
000110 d2 af 84 be 6e e8 8f be ea 5a 45 be 2f bc ce bd
       -0.2591539 -0.28107017 -0.19272962 -0.10094487
000120 18 7b 4e bf f8 ac 63 3d 56 24 5d be 50 0e d6 3d
       -0.80656576 0.055584878 -0.21595892 0.10451949
000130 4c 56 f6 bd 11 b2 1e be b3 4e a2 bd d2 1e c1 be
       -0.120281786 -0.15497614 -0.07925167 -0.37718827
000140 dd 94 0e bd 01 6c 5c be 9f f8 a7 3d cf ff de bd
       -0.034809936 -0.21525575 0.082017176 -0.10888635
000150 c8 e7 c1 3d e0 56 c6 bd d4 5a 9b be 1d 42 75 3c
       0.09468037 -0.09684539 -0.30342734 0.014969376
000160 f0 4a d8 bd 0c 07 b5 3d b4 ee 33 3e 10 98 1c be
       -0.10561168 0.08839235 0.17571527 -0.15292382
000170 12 ce 41 be c6 33 56 be cf 4f c7 bd ce d6 46 be
       -0.18926266 -0.20918187 -0.09732019 -0.19417879
000180 1e 31 80 be 6c a1 a6 3b 64 ca 11 be 5e 9a ec 3d
       -0.25037473 0.005085161 -0.14237362 0.11552881
000190 19 ee a3 3d 17 0c ca bd 7c 94 ba 3d 70 ef 69 be
       0.08004398 -0.09865587 0.091103524 -0.22845244
0001a0 78 cf 97 be d1 16 df bd bd af b4 bd f2 0c a7 be
       -0.29650474 -0.10893024 -0.08822582 -0.32627064
0001b0 21 90 06 bf e5 17 77 be 22 02 11 be 29 95 53 bd
       -0.52563673 -0.24130209 -0.1416097 -0.051655922
0001c0 13 23 b6 be 27 84 a6 bc 99 d6 7b be 2c bb d1 bd
       -0.35573635 -0.020326687 -0.24593581 -0.10240778
0001d0 6d 84 90 bd e4 a2 06 be 92 37 9a 3d 05 99 1a b9
       -0.07056508 -0.13148075 0.075301304 -0.00014743589
0001e0 a1 79 65 bd a2 6d 95 be 9d 92 34 3d 87 9c 69 be
       -0.056024197 -0.29185206 0.044085134 -0.22813617
0001f0 cc d8 2e bd 7b ba 09 be fa 63 1f be 07 2b 58 3e
       -0.042687222 -0.13450043 -0.15565482 0.21110164

fc3.weight f4 [4, 128]
000000 a8 0e 30 3f ea c2 0b 3f a6 2d 9a bd 10 c4 80 3f
       0.68772364 0.5459429 -0.07528238 1.0059834
000010 3f b0 c9 3e bc ad 3f be e8 2d 23 3e 35 cc e2 bd
       0.39392278 -0.18718618 0.1593548 -0.11074106
000020 44 0b b9 3e f8 0c 02 bd 69 6e 1c be 3f 2f 46 bf
       0.36141407 -0.03175065 -0.15276493 -0.7741584
000030 89 f3 21 3f e9 13 2d 3f 80 1a 41 bf f0 08 62 3e
       0.6326223 0.67608505 -0.7543106 0.22073722
000040 7c 1e fe 3e 6d 57 85 3f 2b db 89 bf 52 c4 c8 be
       0.49632633 1.0417305 -1.077001 -0.3921228
000050 22 c3 18 3f a7 d9 48 3f 1f b2 44 3f 7c 2c 40 be
       0.5967275 0.7845711 0.7683429 -0.1876697
000060 77 69 04 3f b2 03 7c 3e 02 b8 64 3e bb 11 37 3f
       0.51723427 0.24610785 0.22335818 0.7151143
000070 c3 46 ad 3d c2 3d c9 be 9c 60 42 3f f0 d8 d0 3e
       0.08460762 -0.3930493 0.75928664 0.4079051
000080 92 bf 17 3f 61 f2 e4 3e 0d 4c bd bc 09 38 11 3f
       0.5927669 0.4471617 -0.023107553 0.5672613
000090 f1 75 33 bf 25 ba d7 be 25 5e 9f be 61 e4 26 3e
       -0.7010184 -0.42134205 -0.31126514 0.16298057
0000a0 b9 2e 99 3e 78 bd 43 be 16 c4 69 bf 18 fc 4d bf
       0.2991846 -0.19115245 -0.9131483 -0.8046279
0000b0 e7 5c 23 bf bc d2 48 3f 8a d5 18 3f 46 8b 0b 3e
       -0.6381363 0.78446555 0.59700835 0.13627347
0000c0 5f 91 2e bf 09 ff 42 3f 63 ba 56 bf d2 b3 16 3e
       -0.6819057 0.761704 -0.83878154 0.14717034
0000d0 69 44 3f 3f 09 b8 f1 bd fa 65 0a be 93 4b 96 3e
       0.7471376 -0.1180268 -0.13515463 0.29354534
0000e0 84 3b a0 bc 9d d0 b9 be 70 b6 a7 bf ad 92 89 be
       -0.01955963 -0.36291972 -1.310255 -0.26869717
0000f0 2d c3 2d be 51 b1 14 3f 24 f4 22 3f a0 c5 1a bf
       -0.16968985 0.58083063 0.6365378 -0.604578
000100 b6 17 66 3e b6 a7 18 bf 70 dd 94 be b5 3c 8f 3e
       0.22469983 -0.59630907 -0.29075193 0.27976003
000110 89 cd a2 be dc 09 2e 3f 6d 4f 64 be af 78 c6 3e
       -0.31797436 0.67983794 -0.22295924 0.3876395
000120 2a 9f 32 3e 06 8b 06 bf 67 d6 66 bf a3 54 22 3e
       0.17443529 -0.5255588 -0.901709 0.15852599
000130 7c 05 1a 3f 27 05 7f bf 38 3c 21 bf 57 2d d7 be
       0.6016462 -0.99617237 -0.6298251 -0.4202678
000140 b3 6e 20 3e 27 45 83 bd f1 4a 60 bf bb 89 ad 3e
       0.15667228 -0.06409674 -0.8761435 0.33894143
000150 a7 3b 40 bd 8b 5a 29 bf af ba e9 be 7c 17 2c be
       -0.04693189 -0.6615378 -0.4565024 -0.16805834
000160 a0 c6 4b be c5 37 1b 3f be f6 1b bd 9b dd 69 bf
       -0.19899988 0.6063197 -0.03807711 -0.9135377
000170 2e 19 7d 3e 71 e7 f4 3e 69 7a 1a bf 22 be c2 bd
       0.24716637 0.47832826 -0.60343033 -0.09508921
000180 23 64 3d 3e 2d fb 03 bc 74 13 b4 3e 5e 46 8f 3e
       0.1849523 -0.00805549 0.35171092 0.27983373
000190 49 7a 2c bf 7d 2e 86 be 6d e4 08 bf ab 58 24 3f
       -0.6737409 -0.26207343 -0.5347355 0.64197797
0001a0 aa e4 3c 3f 84 e6 29 3e 66 06 69 3f d0 50 55 3f
       0.73786414 0.16591841 0.9102539 0.83326435
0001b0 7c 5d a1 3d 7c 22 7b 3f ff 7c 2b 3f 55 f2 2a 3f
       0.07879159 0.98099494 0.66987604 0.6677602
0001c0 d0 78 72 3d 14 47 e5 3e 05 5a 89 be 17 45 4d 3e
       0.059197247 0.4478079 -0.26826492 0.20045887
0001d0 31 79 f8 be 81 41 09 bf da ee f1 be 58 55 9b 3e
       -0.48529962 -0.53615576 -0.47252542 0.3033855
0001e0 52 12 03 3f 9c 59 a6 3e 43 ed 93 bc 92 47 28 be
       0.5119983 0.32490242 -0.018057471 -0.16433552
0001f0 1d 8e ea 3d cc cd 38 bf f7 21 5e be af 00 14 be
       0.11452887 -0.7218902 -0.21692644 -0.14453386
000200 46 48 4e 3d 2d d2 b3 bc 13 90 02 3f 36 60 67 bf
       0.050361894 -0.021950806 0.5100109 -0.9038118
000210 fd e3 ae 3e 36 50 8a 3f a7 75 9f 3e 22 70 11 bf
       0.34158316 1.0805728 0.3114445 -0.56811726
000220 cf 9b b8 3e d8 fd 20 bf 26 79 81 3f c1 45 0e 3e
       0.36056373 -0.62887335 1.0115097 0.13893797
000230 5e 1b 42 3f 72 6b 33 be 27 34 98 3e 06 98 b0 be
       0.7582301 -0.17521456 0.2972729 -0.34490985
000240 19 fd d5 be 31 e6 08 3f d9 02 9f be b6 81 31 bf
       -0.4179466 0.53476244 -0.3105686 -0.6933855
000250 4f f2 99 3e 49 a5 93 3e 20 01 6f 3e c8 de 2e bf
       0.3006768 0.2883704 0.23340273 -0.6830869
000260 99 ee 02 bf 95 1f 0c 3f 32 d6 f2 bd ac b2 6f 3e
       -0.5114532 0.5473569 -0.11857261 0.23408002
000270 c1 12 58 3f 48 d9 84 be 76 96 7c bd 28 50 a8 3e
       0.84403616 -0.25947022 -0.06166693 0.32873654
000280 c5 c6 9f be 46 e8 c9 3d d2 c4 17 bd d6 97 52 3f
       -0.31206337 0.09858756 -0.037052937 0.82262933
000290 a6 32 14 3f 05 9c c6 3e 47 6e 14 3e 5d 15 ca 3d
       0.57889783 0.38790908 0.14495192 0.09867356
0002a0 95 6d 2f 3f e9 b5 4a 3f 7a af 1f bf 33 f1 4f 3f
       0.68526584 0.7918382 -0.6237713 0.81227416
0002b0 ce ec 80 bd 53 76 26 3f 04 1f 0a 3f ba de e8 be
       -0.06295167 0.650243 0.53953576 -0.45482427
0002c0 b9 f4 c1 bc 47 18 6a bf 9e c0 0c bf bc d1 3c bb
       -0.023676263 -0.91443294 -0.5498141 -0.0028811535
0002d0 ba 97 11 3f d0 85 11 3e 06 7a 6e bf 9c 8d 02 bc
       0.5687214 0.14211202 -0.93154943 -0.007968333
0002e0 6f 29 0e bf 2b c9 49 bd 0e 4e 6b be 00 4b 88 bc
       -0.5553197 -0.049264114 -0.22978994 -0.016637325
0002f0 4a a0 43 bf be d4 24 bf bc 93 33 bf 29 8f 44 be
       -0.76416457 -0.6438712 -0.701473 -0.19195236
000300 fa 37 9b 3e 2c fb 28 3d 2a b1 a3 3d 64 67 51 bf
       0.30316144 0.04125516 0.07992776 -0.81798387
000310 92 c1 6f be 3f 44 03 3f c6 45 5b 3f 9f 87 58 bf
       -0.23413685 0.5127601 0.8565334 -0.8458194
000320 55 d7 99 3d 38 81 38 bb 76 e9 0c 3f 0a 02 17 bf
       0.075117745 -0.0028153192 0.55043733 -0.58987486
000330 6d d2 9e 3d 90 21 61 3f f3 7a 2e 3e 13 d7 88 be
       0.07754979 0.8794184 0.17039089 -0.2672659
000340 11 5c 1f bf 1d e8 93 3f 9f ae df 3e 10 f7 45 3f
       -0.6224986 1.155521 0.43687913 0.7733011
000350 64 df 71 3f 48 49 db 3e b8 22 39 bf 62 4e 11 bf
       0.9448149 0.42829347 -0.723186 -0.5676023
000360 ff 03 8e 3f 1c f8 62 bf 03 2e 74 3f c7 46 fb bd
       1.109497 -0.88659835 0.9538271 -0.12269359
000370 8f 65 d2 bc 35 a8 89 bf ba a6 58 3f 4a f0 4f be
       -0.025683193 -1.0754458 0.84629405 -0.20306507
000380 b4 e1 75 3e 8a ca 7f 3e 6f 9b 2a be ae 6b 09 3f
       0.2401188 0.24979606 -0.16660856 0.5367993
000390 72 32 f8 3e ab aa 7b bc 31 b7 af be a2 f3 10 bf
       0.48475987 -0.015360515 -0.3431945 -0.56621754
0003a0 65 8e 15 3f e2 39 8f be c2 f8 34 be 99 f6 92 3d
       0.584204 -0.2797385 -0.17673019 0.07175941
0003b0 de 17 c4 be 1d 81 12 bf 37 1b dc bd 72 74 14 be
       -0.3829946 -0.5722826 -0.10747378 -0.14497545
0003c0 dd d3 17 3e 04 ab 93 3e f4 27 3b 3e 89 c1 05 bf
       0.14826913 0.28841412 0.1827696 -0.52248436
0003d0 a5 ff 2c bf 8f e4 a0 3e a5 57 23 bf ed 42 64 bf
       -0.6757758 0.31424376 -0.6380561 -0.8916462
0003e0 0c 94 6c be 96 bd 46 bf f9 db 08 bf f3 e6 75 bf
       -0.2310335 -0.77633035 -0.5346065 -0.96055526
0003f0 ab f3 43 3f cb 0c 11 3e 32 2c c9 3e 42 5a dc be
       0.7654368 0.14165036 0.3929153 -0.4303761

fc3.bias f4 [4]
000000 ae d4 ab bd 4d e8 fc 3c 92 72 ad bd 12 52 aa bc
       -0.08390175 0.030872488 -0.08469118 -0.020791087

bn1.weight f4 [128]
000000 47 65 aa 3e 20 cf 53 3f 6f da 37 3f a6 e9 08 3f
       0.33280393 0.8273792 0.7181768 0.5348152
000010 ac c8 83 3f c6 e3 49 3f 51 b2 5c 3f 09 cc 13 3f
       1.0295615 0.7886318 0.8620959 0.5773321
000020 69 13 66 3f a2 b5 99 3f 3c ce 47 3f d9 18 26 3f
       0.8987337 1.2008555 0.78049064 0.64881665
000030 83 69 9e 3f 90 bc 52 3f 6a 07 1b 3f 8c 82 82 3f
       1.237595 0.82318974 0.6055819 1.019609
000040 d3 78 0d 3f 5a 1c 94 3f 28 33 7b 3f 3d 01 7f 3f
       0.5526249 1.1571152 0.98124933 0.99611264
000050 87 06 6e 3f 01 a2 6f 3f 7b dc 79 3f f4 b9 81 3f
       0.9297871 0.93606573 0.9760205 1.0134873
000060 16 0e 6c 3f c2 4c 2e 3f b9 f6 8b 3f bf 26 40 3f
       0.92208993 0.68085873 1.0934669 0.7505912
000070 55 6e 2d 3f 0f 9b 51 3f 88 8f 27 3f 72 55 27 3f
       0.6774648 0.81877226 0.65453386 0.65364754
000080 bf 01 26 3f 91 56 23 3f 5a 08 1b 3f b6 42 1d 3f
       0.64846414 0.63803965 0.6055962 0.6142992
000090 73 91 8f 3f 73 81 1f 3f d1 5a 59 3f 15 fc 5d 3f
       1.1216263 0.623069 0.849042 0.8671277
0000a0 38 1f 22 3f 71 7b 2b 3f 56 32 29 3f 22 06 5c 3f
       0.63328886 0.6698523 0.6609243 0.8594686
0000b0 1c 33 06 3f b8 6d 54 3f 6a 2f 85 3f b1 5d e6 3e
       0.52421737 0.8297992 1.0405095 0.44993356
0000c0 58 75 1c 3f b4 a3 28 3f 8d 8f 49 3f 14 49 7f 3f
       0.6111655 0.6587479 0.78734666 0.99720883
0000d0 dd e4 6a 3f c4 27 61 3f e7 b0 1f 3f 52 cb 2d 3f
       0.9175547 0.879513 0.62379307 0.6788837
0000e0 f5 77 0e 3f 66 76 2b 3f 85 0a 5f 3f ce f5 09 3f
       0.5565179 0.66977537 0.87125427 0.53890693
0000f0 f5 8a 32 3f e6 f7 0e 3f 9d 8e fd 3e 47 6d fc 3e
       0.6974328 0.55847013 0.49522868 0.49302122
000100 4b 90 31 3f b2 07 69 3f 6b 2e ff 3e 7b c8 40 3f
       0.693608 0.9102737 0.49840102 0.7530591
000110 55 4a 29 3f ea 7c 5a 3f 49 b1 4e 3f d1 5d aa 3f
       0.66129047 0.85346854 0.80739266 1.330988
000120 1d 48 f5 3e 1e 95 59 3f 83 43 23 3f e6 bb 43 3f
       0.4790658 0.8499316 0.6377489 0.76458585
000130 21 3c 46 3f 2d 7b 5a 3f d5 f0 29 3f ed a3 61 3f
       0.774355 0.853442 0.66383106 0.88140756
000140 09 6f 38 3f 8e a0 38 3f f4 60 7a 3f 3d cd 63 3f
       0.72044426 0.72119987 0.9780419 0.88985044
000150 37 a8 1d 3f f8 cb 11 3f 7d 2b 7a 3f 93 ec 65 3f
       0.615848 0.56951857 0.9772261 0.8981411
000160 47 a0 91 3f b2 22 54 3f ea e3 fd 3e 59 b9 0d 3f
       1.1377038 0.8286544 0.49587947 0.55360943
000170 c7 77 e5 3e d1 90 8c 3f 11 5a e1 3e 78 fe 69 3f
       0.44817945 1.0981694 0.44014028 0.91403913
000180 bb a2 2b 3f a1 03 d6 3e 88 9b 3e 3f 2a 64 8f 3f
       0.6704518 0.41799644 0.7445607 1.1202443
000190 b9 a5 43 3f 84 ae ef 3e e0 8a 92 3f fb 47 0a 3f
       0.7642475 0.46812832 1.1448631 0.54016083
0001a0 6f 27 71 3f 7c 66 2b 3f cd 85 0c 3f a6 9f 7e 3f
       0.94200796 0.66953254 0.54891664 0.99462354
0001b0 33 da 42 3f 5d 56 48 3f 46 ca 34 3f dd b5 7f 3f
       0.76114196 0.7825678 0.70621145 0.99886876
0001c0 86 14 16 3f d9 7b 7a 3f b8 1b 49 3f ba 78 48 3f
       0.58625066 0.97845227 0.7855792 0.78309214
0001d0 36 03 17 3f 4c 03 28 3f 89 8b 66 3f cb 71 52 3f
       0.58989275 0.6563003 0.90056664 0.82204884
0001e0 05 b4 1c 3f 95 43 9d 3f 85 22 4e 3f 66 b8 4d 3f
       0.6121219 1.2286249 0.8052142 0.80359495
0001f0 0f 84 42 3f c0 a9 0e 3f 4c 5e 66 3f d4 7c 86 3f
       0.75982755 0.5572777 0.89987636 1.0506845

bn1.bias f4 [128]
000000 bd f6 02 3f 09 3f 5c 3d 8b 66 4b 3e 12 b6 89 3e
       0.5115774 0.053771053 0.19863336 0.2689672
000010 d6 2f 09 3e 61 5f 7f be d7 04 1e 3d 37 b7 0c be
       0.13397154 -0.24938728 0.038578834 -0.13741766
000020 b3 91 ff bd a0 c9 0a 3f ea 3f b8 bd 96 8d 74 3e
       -0.12478962 0.54213905 -0.08996566 0.23882136
000030 80 06 97 be c4 2d 81 3e 4a b4 df 3e c8 5f 2d 3e
       -0.29497147 0.2523023 0.43692237 0.16931069
000040 9f c2 51 3e 5e 23 fe 3d 20 50 df 3e 8d 33 be 3e
       0.20484398 0.124090895 0.43615818 0.37148705
000050 c1 14 8f 3e be 0b 77 be 34 76 0b 3e 4b 83 b3 3e
       0.2794552 -0.24125573 0.1361931 0.35061106
000060 2a f7 11 3e 1d 29 c4 bd 94 0f ac 3d bd b8 f4 3e
       0.14254442 -0.09578154 0.08401409 0.47797194
000070 55 fb 49 3d fd f8 0a 3d 8a 3f 4c 3c 7f b3 e7 3e
       0.049311955 0.03392886 0.012466321 0.45254132
000080 ab 55 00 3e ce 95 e3 bd 7c 0b eb 3d 0c cc cd 3e
       0.1253268 -0.11112557 0.114768 0.40194738
000090 14 a7 4e 3e c8 9f 3b bd b7 39 3f 3e e6 f1 cc 3e
       0.20180923 -0.045806676 0.1867436 0.40028304
0000a0 68 26 a3 3c c4 f5 07 bf 63 5a aa 3d 63 d2 a9 3c
       0.019915774 -0.53109384 0.08318021 0.020730203
0000b0 f0 0a 1d 3c 8a fc 9e 3c 62 6a 22 3e a4 40 e7 3d
       0.009585127 0.01940753 0.15860894 0.11291626
0000c0 77 74 32 3e 23 32 22 be 56 40 61 3d 06 84 60 3e
       0.1742724 -0.15839438 0.054992996 0.21925363
0000d0 1d cd 6a 3d 61 d9 a3 3e 65 29 d6 3d 4d 77 8c bc
       0.057324518 0.32001784 0.10457114 -0.01714673
0000e0 89 72 b5 3d b3 5a e2 bd e6 0b 92 3e 9a 15 1e be
       0.088597365 -0.11052456 0.28524703 -0.15437928
0000f0 8b 0f 8e 3e aa 68 7f 3e f0 d9 25 bd 37 a1 11 3e
       0.27746233 0.2494227 -0.040491045 0.14221655
000100 03 a9 64 3e 33 33 90 3e c4 ca c8 3d f1 ea 58 be
       0.22330098 0.28164062 0.098042995 -0.21183373
000110 aa 10 85 bd f9 65 53 3e 47 00 59 3e 42 95 9b 3e
       -0.06497319 0.20644368 0.21191512 0.30387312
000120 d6 cb 16 be bb c6 08 bd ec 67 6e 3d 26 63 8c bd
       -0.14726195 -0.03339265 0.058204576 -0.068548486
000130 a5 67 d1 3c e7 c5 43 bd 4f fe 40 bc 9a 50 a1 3e
       0.025562117 -0.047796156 -0.011779382 0.31506807
000140 3e fb bf 3e d8 3f 16 be 8a a3 af 3e 47 ab 25 3e
       0.3749637 -0.14672792 0.34304458 0.16178618
000150 c2 a8 01 3d 1a eb 96 3c a5 8e b3 3d 31 35 b9 3e
       0.03165508 0.018422652 0.08767442 0.36173394
000160 05 70 94 3d e6 b3 96 3d 64 24 1f 3e d6 e5 35 3e
       0.072479285 0.07358532 0.15541226 0.17763457
000170 46 aa ad 3d fc af 31 be bf 14 bd bc d7 f4 0e 3e
       0.08479743 -0.17352289 -0.023081182 0.13960586
000180 5f ba df 3e 3c 46 88 be 7c fb 96 3e 52 3f 13 3d
       0.43696877 -0.26616085 0.29488742 0.03594906
000190 ba ef 18 3c 2c 42 4b 3e 07 d0 d6 3d a3 97 89 3d
       0.009334499 0.19849461 0.10488897 0.067183755
0001a0 df 14 71 3d 07 ec ca 3d 1d 5a e9 bd 80 f1 09 3f
       0.058857795 0.099083 -0.11394141 0.53884125
0001b0 93 f7 8f be 90 d4 4d be c5 6d 87 3e ab 3c f5 3e
       -0.28118572 -0.20100617 0.26450935 0.47897848
0001c0 b2 9a dd 3c d3 80 a1 3e 01 57 b8 bc 8b 00 0c bd
       0.027051304 0.31543598 -0.022502424 -0.034180205
0001d0 b0 e6 ab be 01 be 13 3d 36 51 b4 3e 4f 23 8f 3e
       -0.33574438 0.036069874 0.3521821 0.27956626
0001e0 5e 73 c2 3a fc 9a 31 3e 30 35 a2 bd 3d 55 99 bd
       0.0014835407 0.17344278 -0.07920301 -0.07486961
0001f0 ce b5 7c 3e fd eb db bd 24 e1 53 3e 28 f7 c9 3d
       0.24678728 -0.107383706 0.20691353 0.098615944

bn1.running_mean f4 [128]
000000 3e b5 a0 3d 3f 90 87 3e ad 97 27 3e 0e 26 5e 3f
       0.07847069 0.2647724 0.16366453 0.86776817
000010 60 f3 a8 3f 50 c3 a5 3f af 65 f3 3e 3e b5 b4 3e
       1.3199272 1.295023 0.47538516 0.35294527
000020 56 e4 99 3e c4 19 a8 3e 42 ef 9f 3e 9d c6 dd 3d
       0.3005702 0.32832158 0.31237227 0.10828898
000030 47 2b c5 3e c8 65 bf 3e 89 f6 bc 3e a7 dc 6d 3f
       0.3850958 0.3738234 0.3690684 0.92914814
000040 30 eb 60 3f 85 91 09 3e 2a eb 2e 3f 95 f0 f3 3e
       0.8785887 0.13434418 0.6832758 0.47644487
000050 e5 2e 16 3e b0 a8 88 3f 1c 1b 08 3e 24 33 10 40
       0.14666326 1.0676479 0.13291591 2.2531214
000060 bd 6b 05 3e cc ad 7e 3e c3 ff 37 3e fd 0d 36 3e
       0.1302938 0.24870986 0.17968659 0.17778774
000070 15 ae 86 3e 00 f1 d5 3e 9f fe 8f 39 65 ed ba 3e
       0.2630469 0.4178543 0.00027464793 0.36509243
000080 f6 ed 75 3f d4 b2 45 3e 25 86 19 3f d2 f5 11 3f
       0.96066225 0.19306499 0.59970313 0.5701572
000090 63 19 58 3e da 6c 47 3e df 5a 48 3f fa 9f 2b 3f
       0.21103434 0.19475117 0.7826366 0.6704098
0000a0 1a 19 27 3e fa 68 98 3e d8 62 ec 3e f6 9e cd 3e
       0.16318169 0.2976759 0.46169162 0.4016034
0000b0 53 f1 23 3e 51 37 fe 3d ae c7 94 3e 60 7c 32 3d
       0.16010027 0.124128945 0.29058594 0.043575644
0000c0 fc 7a 1a 3f dc 6c 03 3f 10 03 a9 3e 61 4d 83 3e
       0.6034391 0.5133798 0.3301015 0.25644973
0000d0 79 29 74 3e 42 10 84 3e 63 69 df 3d 79 06 e9 3e
       0.23843946 0.25793654 0.10908773 0.4551275
0000e0 c9 d0 05 3e fd 8c 4d 3e 19 b4 9a 3f e8 24 bb 3e
       0.13067926 0.20073314 1.2086211 0.36551595
0000f0 cf 9d b9 3d 82 76 80 3d a4 e1 d7 3f 7a 34 9a 3d
       0.09063303 0.062726036 1.6865735 0.0752954
000100 13 d6 a6 3d 59 80 ba 3e da a8 b5 3e 77 03 bd 3e
       0.081463 0.36426046 0.35480386 0.36916706
000110 50 f7 98 3e 30 85 82 3e f0 3f e3 3d 86 ea 94 3e
       0.29876184 0.2549224 0.110961795 0.29085177
000120 de df 0f 3d 1d 7c 80 3e c9 5f be 3d 40 84 16 3f
       0.035125606 0.2509469 0.09295613 0.5879555
000130 64 19 39 3e d9 d4 b8 3d c3 2a d3 3d f6 c5 7f 3e
       0.18076092 0.090249725 0.103108905 0.2497786
000140 9c 5d ac 3e f6 d7 2e 3f da 5d ea 3e c3 25 7c 3e
       0.33665168 0.6829828 0.45774728 0.2462378
000150 b2 d7 b2 3e 2f fa de 3e ae 8c 18 3f cb 58 0a 3f
       0.34930187 0.4355025 0.5958966 0.5404174
000160 0b 0b 1b 3f 53 8c 23 3e d1 51 e5 3e b0 ac 7d 3e
       0.60563725 0.15971498 0.44788983 0.24772906
000170 0e ca 94 3c 68 15 e2 3f a3 a5 99 3f 8b 20 ed 3e
       0.018162753 1.7662783 1.2003673 0.4631389
000180 65 26 95 3e 43 da 1f 3e 09 c5 87 3e 8a 53 94 3e
       0.29130855 0.15610604 0.26517513 0.28969985
000190 6b a9 af 3e 34 89 f2 3e 8f ca a3 3e 84 3c c8 3d
       0.34308943 0.47370303 0.31990477 0.097771674
0001a0 bd 3e 85 3e 2c 54 78 3e 4e 7f c7 3e e1 6a a7 3e
       0.26024428 0.24250859 0.38964313 0.3269873
0001b0 95 3f 5a 3e 88 d4 3b 3f b1 1b ee 3e 16 1a 98 3f
       0.21313317 0.7337117 0.46505502 1.1882961
0001c0 84 a8 84 3e 50 a5 9f 3e f2 b4 35 3f a9 b9 05 3f
       0.25909817 0.3118081 0.70979226 0.5223642
0001d0 28 be 0f 3e b3 18 5d 3e bc 34 87 3e a3 1a 1c 3f
       0.14037383 0.21591453 0.2640742 0.60978144
0001e0 4a be 0a 3f 3a 32 07 3e 97 ac 9c 3e 41 d6 09 3f
       0.5419661 0.13202754 0.30600426 0.5384255
0001f0 20 c9 5a 3e 6c 77 87 3f 1d 38 3f 3f 44 3e 47 3f
       0.21365786 1.058332 0.74695 0.77829385

bn1.running_var f4 [128]
000000 24 5d 6e 3d 98 bc 31 3e 3b 6a f8 3d 5a e4 74 3f
       0.058194295 0.17357099 0.12129637 0.95660937
000010 2d 53 97 3e ab ee e0 3e 38 b5 d7 3e 92 5d a0 3e
       0.29555646 0.4393209 0.42130446 0.31321388
000020 a1 c9 87 3e a2 dd 5b 3e 36 38 1b 3e 3c 31 58 3d
       0.26521018 0.21471265 0.15158162 0.05278133
000030 f2 c4 80 3e c6 f2 2f 3e 50 05 9a 3e 93 f2 9f 3f
       0.25150257 0.17182454 0.30082178 1.2495903
000040 f6 70 0f 3f ab c7 91 3d 8c 8b e4 3e 5a af 93 3e
       0.5603174 0.07118162 0.44637716 0.2884472
000050 16 fc e0 3d 34 cd 25 3f 0a 98 81 3d 32 ec e0 3e
       0.109855816 0.6476624 0.06327827 0.43930203
000060 88 96 c8 3d 0e 2d 40 3e 61 57 da 3d 53 41 0d 3e
       0.097943366 0.18767187 0.106611975 0.1379445
000070 5f b6 48 3e 5e 4b b0 3e ae 8e de 38 dc 3a 92 3e
       0.19600819 0.344325 0.00010612361 0.2856053
000080 a6 2f 4d 3f f4 30 0a 3e aa d0 24 3f ad f8 fb 3e
       0.8015083 0.13495237 0.64380896 0.49213162
000090 0f 97 14 3e 3e dd 18 3e c9 33 29 3f ce 70 ae 3e
       0.1451075 0.14928147 0.6609464 0.34070438
0000a0 3e 95 c8 3d 2f 19 ec 3d 85 bc fe 3e 39 f9 74 3e
       0.09794091 0.11528241 0.49753204 0.23923196
0000b0 20 28 fa 3d 19 41 c1 3d f5 7a 7d 3e 7d 48 b4 3c
       0.122146845 0.094362445 0.24753936 0.022007221
0000c0 f6 a3 9f 3e 9b e6 0c 3f f9 16 88 3e 53 8a 28 3e
       0.3117978 0.55039376 0.26580027 0.16459017
0000d0 b7 9e 45 3e 2f b5 4c 3e 54 4a 81 3d c3 c1 b4 3e
       0.19298826 0.19990991 0.06313005 0.35304078
0000e0 d0 20 ab 3d 5d ad ee 3d d3 9e 66 3f 67 c7 48 3e
       0.08355868 0.1165416 0.90086097 0.19607316
0000f0 88 a3 68 3d 13 3f 0f 3d 6d 8b bf 3f 61 fc 95 3d
       0.05679658 0.03497226 1.4964424 0.07323528
000100 b2 06 6c 3d 81 4d a4 3e 15 f5 59 3e 72 f5 9d 3e
       0.057623573 0.3209038 0.21284898 0.30851322
000110 1c b5 4d 3e 52 dc 81 3e bf b1 75 3d 6e d2 55 3e
       0.20088619 0.25363404 0.059983965 0.20881054
000120 8b d1 9f 3c de 76 84 3e 0f 5c 65 3d b1 8c 95 3e
       0.019509098 0.25871938 0.055995997 0.29208902
000130 db 0c 0b 3e 92 71 a0 3d 3f cb a1 3d b2 33 41 3e
       0.13579123 0.07834162 0.07900094 0.18867376
000140 08 f2 6c 3e af a5 44 3f c7 6f 91 3e 9d 34 86 3e
       0.23139203 0.76815313 0.28405592 0.26212016
000150 c8 71 9e 3e 4d 56 04 3f b3 18 0e 3f 9b 3d c7 3e
       0.30946183 0.51694185 0.5550644 0.3891419
000160 53 a1 da 3e b5 cf 01 3e 56 9f f6 3e ce 7a 13 3e
       0.42701206 0.1267689 0.4816844 0.14402315
000170 9d b7 a9 3c c5 f4 23 3f 3f bd 00 40 41 2d dc 3e
       0.020717436 0.64045364 2.0115507 0.43003276
000180 52 80 84 3e df ee d5 3d 2d 05 7b 3e f1 e2 3b 3e
       0.2587915 0.10445952 0.24513693 0.1834829
000190 2b 87 55 3e 65 a7 29 3f a6 be 1c 3e 86 0b 69 3d
       0.20852344 0.6627105 0.15307102 0.056895755
0001a0 44 80 0c 3e 1c 96 41 3e 59 6f c4 3e a9 5c 8c 3e
       0.13720804 0.18904918 0.38366202 0.27414444
0001b0 f0 13 d2 3d d8 fd 1e 3f a5 a0 ff 3e 3b 23 5e 3f
       0.10257709 0.62106085 0.4992725 0.8677251
0001c0 2d ee 5d 3e 5a a5 8a 3e 06 40 c4 3e 76 a6 96 3e
       0.21672888 0.27079278 0.38330096 0.29423875
0001d0 2a 0b ce 3d e0 2e 48 3e 3f 8c 20 3e f1 b7 7a 3e
       0.10060723 0.19549131 0.156785 0.2448423
0001e0 a2 36 09 3f 77 20 85 3d a9 4f b3 3e 1c 64 05 3f
       0.5359899 0.06500333 0.35021713 0.5210588
0001f0 35 55 0e 3e 27 f3 74 3f 1e 6e 0f 3f c5 05 d6 3e
       0.13899691 0.9568352 0.560274 0.41801277
