checkpoint_critic.pth (torch_old, 89504 bytes, 9 tensors)

fcs1.weight f4 [128, 33]
000000 3f 6e e5 bd cd d7 df bb 54 fb 55 3e b5 a5 49 be
       -0.112026684 -0.0068311454 0.20896655 -0.19692118
000010 2d 2f 05 be 63 53 55 3e 4d de 74 be a5 6a 08 bd
       -0.13006277 0.20832591 -0.23912926 -0.03330483
000020 5f 36 d9 3d fd f9 a4 be 69 7b ea 3c 25 18 03 3e
       0.106060736 -0.32221976 0.0286233 0.12802179
000030 a4 5d db 3d 80 df 0d 3e 48 78 e6 3d 84 06 29 bd
       0.1071122 0.1385479 0.112534106 -0.04126598
000040 dd cf 9e 3e 4e a7 4e 3e 34 18 ce be 98 3d 56 3e
       0.31017962 0.20181009 -0.4025284 0.20921934
000050 62 3c 10 3d 38 2a d1 3d 7d 04 22 3d 09 34 40 3e
       0.035213836 0.10213131 0.03955506 0.1876985
000060 d8 16 fb 3a 51 11 8e bc c0 71 14 3d 79 01 23 3e
       0.0019156588 -0.017342241 0.036241293 0.1591853
000070 70 81 f8 3b 8b 14 04 bd 1c 2a 37 bd a4 8a f8 3c
       0.0075837895 -0.032246154 -0.044717893 0.030339547
000080 c7 ea 58 bf f1 bb 7f bc 0b 31 48 3e b9 18 64 bd
       -0.8473324 -0.015608774 0.19549958 -0.05568764
000090 95 58 6d be df 8b 14 3d d2 6c 6f bf 5e 01 bb bd
       -0.23178323 0.036266204 -0.9352542 -0.0913112
0000a0 33 1e f2 3d 1a bf 74 3c f1 6c 82 3e d3 c5 c6 bb
       0.11822166 0.01493814 0.2547374 -0.006066063
0000b0 71 dc f5 3d 41 e9 2a bd 30 4a 11 3d 9c 81 68 3c
       0.120049365 -0.041726355 0.03547114 0.0141910575
0000c0 81 a4 c7 3d b3 fc 4b be 77 09 a0 be 0e 4a 65 be
       0.097481735 -0.19920616 -0.3125722 -0.22391531
0000d0 71 c9 cd 3c d1 60 85 bd c1 25 2b 3d f1 6e 53 bd
       0.025120469 -0.06512607 0.04178405 -0.051619474
0000e0 4c 69 a9 bd b0 a6 4f 3c f6 04 7e 3d 92 8b c9 bc
       -0.08272037 0.012674019 0.06201645 -0.024602685
0000f0 e7 6c c0 bd 3a 48 8c be 98 1b 39 bc bf 3d 27 3d
       -0.093957715 -0.27398854 -0.011298083 0.04083037
000100 08 d9 22 bc 84 6a 61 be d4 cd 0c 3e 13 1e c3 bd
       -0.00993944 -0.22013289 0.13750392 -0.095272206
000110 e2 4f 35 be ef ad 4e 3d d5 46 42 3e 81 b4 53 be
       -0.17706254 0.050458845 0.18972333 -0.20674326
000120 60 56 d1 3d ba 44 0d 3c a2 3b 59 3d ff 48 e4 bd
       0.10221553 0.008622343 0.053035386 -0.111467354
000130 4a 44 41 3d ff 7f 8b bd f6 78 75 3c f9 7d 8a be
       0.047184266 -0.06811523 0.014982453 -0.27049235
000140 47 98 59 bd 7c 78 20 3e e2 22 2b 3e 6b 76 81 3d
       -0.05312374 0.15670961 0.16712525 0.063214146
000150 a6 9b a7 3e b8 df 86 3e 58 23 24 bc 71 d0 03 bb
       0.32735938 0.2634256 -0.010018192 -0.0020113254
000160 c3 c7 39 bd 0c 7b ac bc 4c c3 ca bc 1d 84 a1 3d
       -0.045356523 -0.021054767 -0.024751328 0.07886527
000170 66 e6 86 3e a9 6d f7 3b 77 dd 9d bd dd eb 07 bd
       0.26347655 0.0075509143 -0.07708257 -0.03318392
000180 0b 6f fd 3c 2f 94 ac 3d eb 29 4f be 2e 64 91 bd
       0.030936738 0.08426701 -0.20230834 -0.07099186
000190 8f 52 bf bd a6 d9 1d bd 86 2a 9e bd 9a 16 28 bf
       -0.09341919 -0.038537644 -0.077229545 -0.6565949
0001a0 61 83 a7 3c 9d fd f0 be b1 e9 47 bd b3 fb 10 bd
       0.020448389 -0.47068492 -0.04880685 -0.03539629
0001b0 ba fd 15 be 40 6c 96 bc 3d ab 5e 3d 20 b7 25 3c
       -0.1464757 -0.018362164 0.054362524 0.010114461
0001c0 2b 46 18 3e ae 5e 29 3e 78 65 e2 3d 37 a0 6b be
       0.14870517 0.16540024 0.1105451 -0.23010336
0001d0 09 99 00 bf 9e b6 c9 3e d8 f0 e0 be 0b 99 c8 3c
       -0.50233513 0.39397138 -0.4393375 0.02448704
0001e0 2c 29 ad bd 38 33 24 3d 5e 11 6b bc 6c 3a a9 3d
       -0.084551185 0.04008791 -0.014347402 0.08263096
0001f0 01 0a 0b bd 91 de 30 be e7 f5 24 be 0a 94 83 bc
       -0.033945087 -0.17272402 -0.1610943 -0.016061801
000200 f9 35 83 3d a6 23 c9 3c c2 19 39 3d e0 80 56 be
       0.06406779 0.024553131 0.04519058 -0.209476
000210 03 89 be bd 8f cd 0f be 9e 91 fb 3d ab 3b b6 3e
       -0.09303477 -0.14043258 0.12283634 0.35592398
000220 7a c5 41 bf 75 b2 fe 3d 8b 83 3a be e6 db 37 bd
       -0.7569195 0.12436382 -0.18214242 -0.044887446
000230 6d 3a 00 bd a1 32 6d 3d a9 ea 4d bd 24 5d c4 bc
       -0.03130572 0.05790961 -0.050272617 -0.023970194
000240 be cd d2 bc dc 8c 8e 3e 56 c7 b1 3d 56 13 6c bd
       -0.025732871 0.27841842 0.086805984 -0.057635628
000250 89 bb 03 3f ef 5e b2 3e 5b 57 c3 bd 71 6e 2a 3e
       0.5145803 0.34838054 -0.09538146 0.16643693
000260 37 f1 98 3b 29 82 25 bc 87 36 37 bc 73 94 b2 3c
       0.004667427 -0.010101833 -0.011182434 0.021799302
000270 dd e7 e1 3b 95 60 f2 3b c5 4f 37 be 00 df fe 3d
       0.0068940953 0.0073967674 -0.17901523 0.124448776
000280 76 e8 66 ba 00 b6 38 3b fa de 15 be 03 f0 ad bd
       -0.0008808443 0.0028184652 -0.1463584 -0.08493044
000290 69 4a 93 bd 6e e7 e5 bd d1 29 48 3e dc b7 3e be
       -0.07191927 -0.11225782 0.19547202 -0.18624824
0002a0 96 0a 9d 3e 08 49 06 3f 04 ff 87 be fd c9 c5 bd
       0.3067214 0.52455187 -0.2656175 -0.09657667
0002b0 b2 0c d5 3d 50 a7 a9 3c 97 05 d0 3d 0a fc 32 3d
       0.10402812 0.020709664 0.10157316 0.043697394
0002c0 a9 3a 7b 3d 0a 70 34 3d 05 54 03 3c 9b 56 0c bc
       0.06133524 0.04405216 0.008015637 -0.00856557
0002d0 05 89 3d 3d 75 cd 86 3e 0c cb d5 be 5d 12 08 bf
       0.04627325 0.26328626 -0.41756475 -0.5315302
0002e0 16 02 fa be 62 8e 0d bb 3b 47 ac bd 57 6d 45 3d
       -0.48829716 -0.002159976 -0.08412024 0.048199978
0002f0 f7 1a 34 3e ce 88 32 3d 7c 53 61 3d 41 99 0c 3e
       0.17588411 0.0435875 0.055011258 0.13730337
000300 c3 50 e8 3d a1 d2 c2 bc f9 f3 a7 3d 55 b5 1e 3b
       0.11343529 -0.023782076 0.08200831 0.002421697
000310 49 27 a4 bd b3 20 e3 be 95 68 76 3d 00 8e b4 3d
       -0.080153055 -0.44360885 0.06015833 0.08816147
000320 4a 09 2e 3d c4 6f 1a be 58 78 b0 be 91 95 fa 3c
       0.042489327 -0.15081698 -0.34466815 0.030588897
000330 40 75 c5 b9 c1 dd 2d 3e d2 12 1d be b3 0e 53 3c
       -0.00037662126 0.16979124 -0.1533921 0.012881923
000340 9f 09 ab 3d a0 28 30 3e 0c 1d 10 be 21 f0 b7 3d
       0.083514445 0.17202997 -0.1407358 0.08981348
000350 38 57 cb be 65 17 97 bd 84 af 39 3d 26 10 a5 be
       -0.3971498 -0.07377509 0.0453334 -0.32238883
000360 30 a5 ee be 76 f5 9b be cd af dd 3b 55 16 6e bd
       -0.46610403 -0.3046071 0.006765342 -0.058126766
000370 d0 51 5e bd ac 8c 9c 3d 78 be 01 bd 66 f9 3d be
       -0.05427724 0.076440185 -0.031675786 -0.18552169
000380 39 fd aa 3d 87 45 84 3e d1 f7 44 3d 06 25 61 bd
       0.0834908 0.25834295 0.0480879 -0.05496695
000390 ed f9 54 be e0 97 de bb 96 7f 2a be 6d b6 94 3c
       -0.20798464 -0.0067930073 -0.16650233 0.018153394
0003a0 72 da 97 3d ee d2 af 3e c0 d1 c9 3e 7f da 00 be
       0.07414712 0.34340614 0.3941784 -0.1258335
0003b0 c3 b4 b7 3e 4e ac c2 3d 25 28 87 3d c5 3b f0 3d
       0.35880098 0.09505521 0.06599454 0.1173015
0003c0 3c 5c 0e 3d d1 b4 0e 3d b3 3e 26 3c d7 59 6e 3d
       0.03475593 0.03484041 0.010146785 0.058191147
0003d0 3b 98 07 bc be ca 82 3d b9 30 ce bd a4 cc d5 3d
       -0.008276041 0.06386326 -0.10067887 0.10439423
0003e0 7a da b4 bd 1f 50 27 3f ed 9b 22 be 3c 32 2b 3d
       -0.088307336 0.6535663 -0.15879793 0.041795954
0003f0 42 67 0b 3d 1a ab 82 3c 10 af 4f bd ad 78 89 3c
       0.03403402 0.015950728 -0.050704062 0.016781176

fcs1.bias f4 [128]
000000 d2 79 94 3c ea 7f 2a 3e fa a3 99 bd b6 c5 9e 3d
       0.018124495 0.16650358 -0.07501979 0.07752554
000010 44 54 fe bd 23 ab 20 bc cd e8 98 bd 34 fc 8d be
       -0.12418416 -0.009806427 -0.07466278 -0.27731478
000020 50 a2 b9 be 1d a1 1b 3d 04 04 17 be 25 c2 cc 3d
       -0.36256647 0.037995446 -0.14747626 0.09997968
000030 6a cd d5 bc df 71 68 3e 0d 8d c8 bd 31 36 a7 3d
       -0.026098926 0.22699688 -0.09792528 0.08164633
000040 75 e3 9b be fb 36 b9 bd fe 82 d0 be bb c8 26 be
       -0.30446973 -0.0904369 -0.4072494 -0.1628751
000050 e3 a5 3d be 90 8e 93 be f6 54 0b be 22 e3 a5 be
       -0.18520312 -0.28819704 -0.13606629 -0.3239985
000060 65 b4 d0 bd 22 b0 24 be 6d 14 d0 bd 76 31 a7 bd
       -0.101906575 -0.16082814 -0.10160146 -0.08163731
000070 92 22 8c be 97 d4 47 3e 3d 5d 62 3e 4c 37 48 be
       -0.27370125 0.1951469 0.2210588 -0.19552344
000080 d4 d3 66 3e a3 3c 95 be 5e 01 38 be 23 5d 0c be
       0.22541744 -0.29147825 -0.17969272 -0.13707404
000090 27 29 a3 be de 75 68 3d d6 33 54 be ab 6f b4 bd
       -0.31867334 0.056753032 -0.20722899 -0.088103615
0000a0 94 70 c3 3d 3d 50 1b 3e 2e 84 3c bd c2 73 03 bd
       0.09542957 0.15167327 -0.046024494 -0.032092817
0000b0 03 1d 6e bd dc 7b 3e 3e 6f 31 65 bd 92 a1 49 3e
       -0.058133136 0.18601936 -0.055955347 0.1969054
0000c0 4f 8d d4 bd 8b 69 2c bc 0e 4d 43 3e bd 73 aa 3d
       -0.10378515 -0.01052321 0.19072363 0.083228566
0000d0 99 e3 af bd f6 82 ac bd 2c 5f f6 bc 4e 4f 75 3e
       -0.08588333 -0.08423416 -0.030074678 0.23956034
0000e0 e8 df 84 bd 95 db 2a 3d 47 7c 08 bb dc e5 88 bd
       -0.06488019 0.041713316 -0.0020826028 -0.06684467
0000f0 33 7c 0d 3e 80 fc c0 3d fa ca 69 3d f5 f3 2d bd
       0.1381691 0.094231606 0.05707834 -0.042468984
000100 7f 23 c0 bd b0 2b 4d be ad c1 a7 bd fb 75 57 be
       -0.0938177 -0.20036197 -0.081912376 -0.210411
000110 33 20 d6 be 77 4b a9 b8 3a ba 5e be 67 2b a8 bd
       -0.4182144 -8.0726044e-05 -0.21750727 -0.08211403
000120 8f 26 5c bd 22 3a 3d bd 30 7f 02 bd f5 ec 5a be
       -0.05374771 -0.046198018 -0.031859577 -0.21379454
000130 c8 3a 1d be 70 e1 f8 bd 30 a0 66 3d d4 ec e4 3c
       -0.15354455 -0.12152374 0.05630511 0.02794496
000140 e4 18 61 3d 6f 83 90 3d b7 13 8d bd 49 49 2d 3d
       0.05495538 0.07056319 -0.06888526 0.04230622
000150 4d 7c 63 be 28 99 88 be e1 73 b5 3b 1d 05 59 be
       -0.22215386 -0.2667935 0.0055374955 -0.21193357
000160 ae 01 3a bd 1e c4 4c 3e f4 a1 27 be f6 be f5 3d
       -0.045411758 0.19996688 -0.16370374 0.119993135
000170 fe 76 f9 bd 13 fa 2d be 75 94 cc 3d 7b c4 49 be
       -0.12180899 -0.16989927 0.099892534 -0.19703858
000180 3a d7 9d 3e 7a 2c ac be b5 9b 36 3d f7 3d a9 bc
       0.30828267 -0.33627683 0.044582088 -0.02065943
000190 f1 df fd bd 6e 5f 80 bd 1f 5c 4e be a5 f2 47 be
       -0.12396229 -0.06268202 -0.20152329 -0.19526155
0001a0 d5 9d 00 3d 04 a7 c7 bd 7a 46 11 bd 01 5b 8e be
       0.03140052 -0.097486526 -0.035467602 -0.27803805
0001b0 c3 d7 5f be ac a7 79 bd bb dc d3 bd 56 94 fb 3d
       -0.2185965 -0.06095092 -0.10344835 0.12284152
0001c0 23 ef 29 bd b4 e6 01 be a8 86 2d be cd de bd bd
       -0.041487824 -0.12685663 -0.16945899 -0.092710115
0001d0 f7 ef 03 3e bb 1e 9a 3d bf dd 8b bd 1c a4 d3 bd
       0.12884508 0.075253926 -0.06829404 -0.10334036
0001e0 99 99 71 be 50 8a ad 3c 8e 9d 78 3c 84 02 0a 3d
       -0.23593749 0.021184117 0.015174283 0.033693805
0001f0 9d 37 12 be 38 d3 07 3e 57 4d 1b bd e8 4b 53 be
       -0.14279027 0.13264167 -0.037915554 -0.20634425

fc2.weight f4 [128, 132]
000000 e4 b1 6c bd 49 4e 4c bd 42 7f f2 bd 71 9b b1 3b
       -0.057786837 -0.049879346 -0.11840679 0.0054201414
000010 50 22 ff ba b6 c6 64 bc 6b c7 09 3d f3 cd f7 3b
       -0.0019465182 -0.013963392 0.033637445 0.007562393
000020 35 9d 6a 3d c0 5a cf 3c 16 e7 7f be fa f0 f1 3c
       0.05727883 0.025311828 -0.24990496 0.029533852
000030 f8 d9 87 3c 4d dd c8 3d 35 1a 26 3d f8 c9 f0 3b
       0.016583428 0.09807835 0.040552337 0.0073482953
000040 37 27 2f 3e 6a 55 4b bd a8 18 d7 3d 73 a7 99 be
       0.17104803 -0.049642004 0.1050275 -0.30010566
000050 2f 6e c7 3d ae c5 fa 3c 1a 46 1c bd a8 86 ba 3d
       0.09737813 0.03061184 -0.03815279 0.09107715
000060 8f 3c 49 3d 85 e8 14 3e 77 88 b5 3c f1 2f fb bb
       0.04913002 0.14541824 0.022159798 -0.007665627
000070 a9 79 39 3c 77 48 a3 3d e0 ad e8 3c 9e 78 19 3e
       0.01132051 0.07972806 0.028403223 0.14987418
000080 bd 6a 37 bb 14 64 56 3d 4b 50 ce 3d c4 d8 57 be
       -0.0027987205 0.052341536 0.100739084 -0.21078783
000090 0d a4 00 bf 93 05 d6 3d b7 fd ad bd e4 3d 0a bd
       -0.5025032 0.10450282 -0.08495658 -0.03375043
0000a0 92 87 1a 3e fb 02 7e bc 82 50 36 3e 1f 1f e5 bc
       0.15090778 -0.01550364 0.17804149 -0.027968941
0000b0 6a 27 cf 3d 2c ce a2 bc ea 69 7c bd 04 b3 f3 bd
       0.101149395 -0.019873701 -0.061624445 -0.11899379
0000c0 34 85 15 be fa da f0 3a 3f 5c 80 3d b3 52 9a be
       -0.14601594 0.0018375807 0.062675945 -0.3014122
0000d0 52 b8 00 3e 3c a3 71 bd 98 c4 04 be a7 05 58 be
       0.12570313 -0.058993563 -0.1296562 -0.21095906
0000e0 31 c6 c5 3d 95 31 d4 3d 82 45 58 bd 7d 77 52 be
       0.09656943 0.103610195 -0.052800663 -0.20553394
0000f0 d6 bc 0c bd cb fc 11 3e 6c ca 7c bc 21 d5 33 3d
       -0.034359775 0.14256589 -0.0154291205 0.043904427
000100 07 15 71 3d a3 63 31 bd cd d2 43 be a9 6a b5 bd
       0.058857944 -0.04330791 -0.19123383 -0.088582344
000110 81 4f cd 3d dd 2a 20 3d ef c5 1f be 25 9a db bd
       0.1002493 0.039103378 -0.1560285 -0.1072276
000120 39 2f 4c 3d b5 4f 2a 3d f9 53 07 be 69 8c 7b be
       0.049849723 0.04157992 -0.13215627 -0.24565281
000130 dc 26 0c bf 5c 73 2d be ce 27 74 be b4 44 cc 3d
       -0.54746795 -0.16938537 -0.2384331 0.099740416
000140 40 af 0c 3c 26 e8 1a bc a8 f5 d9 be 12 73 e2 3c
       0.008586705 -0.009454763 -0.42570233 0.02764276
000150 be 9b 7c 3b 26 16 14 be 7f 7a 98 bd 8b 03 6e be
       0.0038544978 -0.14461574 -0.07445239 -0.23243539
000160 be 51 80 bd fb ef 0e 3c c6 45 f8 3d ca 80 da bd
       -0.06265591 0.008724208 0.12122683 -0.10669096
000170 e3 60 3f 3e a3 c1 e6 3d 83 64 d7 bd bb 1c cc 3d
       0.18689303 0.11267402 -0.10517218 0.099664174
000180 f5 57 45 bd 3d 7b 32 3e 84 7b bd 3d 95 3a 40 3d
       -0.048179585 0.17429824 0.09252074 0.04693087
000190 86 64 74 be 21 76 77 bc 56 94 21 bc 8f a2 03 3d
       -0.23866472 -0.015103848 -0.009862026 0.03213745
0001a0 62 79 2d be 5c a8 9f 3d 05 aa c5 3a 8f b2 0c 3e
       -0.16940835 0.07795784 0.0015080577 0.1373999
0001b0 56 da f8 bd f9 6e 71 3d 46 9b c3 3d 03 eb e2 3c
       -0.12151019 0.058943722 0.095511004 0.027699953
0001c0 05 2e 71 3c b1 31 ae 3d bb ab d8 be 8c 9f fc bd
       0.014720445 0.08505572 -0.4231852 -0.12335119
0001d0 ef e1 7f bd 19 0f 82 3d 65 a8 9d be cb 73 19 bd
       -0.062471326 0.06350536 -0.30792537 -0.037463944
0001e0 5b 7b e0 3a 59 48 f9 3c 21 01 e7 3d 77 cd ae bd
       0.0017126607 0.030430006 0.11279512 -0.08535283
0001f0 23 ca 2b 3e a0 a5 f3 bc 8e cb 4a 3e 67 02 b7 bc
       0.16776328 -0.029742062 0.19804212 -0.022340013
000200 25 76 a3 3b 73 1d 0e 3c d2 13 c9 3b f6 cf 58 3d
       0.004988449 0.008674013 0.006136396 0.052932702
000210 89 16 2c bd 2c a0 f9 3d 1f 7d 87 3d 95 1f c4 bd
       -0.04201368 0.121887535 0.06615662 -0.09576336
000220 f2 2e 7c bc 6e da db bc 39 ff d0 3c 22 cf 3d be
       -0.015392052 -0.026837554 0.025512325 -0.18536046
000230 d1 da ec be 8b dc 1f 3e b8 ac dc bd 68 58 ec bb
       -0.46260694 0.15611474 -0.10775131 -0.0072126873
000240 b8 7e 22 bd 84 cc a4 3e e6 ea cc bd 0b 24 a6 3c
       -0.03967163 0.32187283 -0.10005741 0.020280859
000250 4f b4 43 3e 5f e2 52 be 2d 3b 3d 3d 7b 1d 19 be
       0.19111751 -0.20594166 0.046199013 -0.14952652
000260 27 44 88 3d bd a3 d7 bc cc 4f b0 bd e5 d1 20 3e
       0.06653624 -0.026323194 -0.0860897 0.15705068
000270 b2 ec 97 bd b3 55 01 3e e1 95 e0 3d eb 39 2d be
       -0.07418193 0.12630348 0.10966087 -0.16916625
000280 02 42 77 be 9a ad 95 3d e9 97 1e bc d4 fa b6 bc
       -0.24146274 0.073085025 -0.009679773 -0.022336401
000290 0d 46 25 3c 36 03 d3 3c 5a 20 cd bd d2 13 66 be
       0.010087502 0.025758367 -0.10015936 -0.22468498
0002a0 bc a6 fe 3c 87 4b 1c be 33 e1 16 bd b5 7a 0d 3b
       0.031085365 -0.15263186 -0.03683586 0.0021588032
0002b0 b4 6e ef bd 7c fb 1c bd ea 7d 92 3d b3 31 43 bd
       -0.11691037 -0.03832577 0.071529225 -0.04765482
0002c0 72 67 a8 bc 8f d8 01 be 75 5b 9d be e5 63 29 3c
       -0.02055714 -0.12680267 -0.3073384 0.010338758
0002d0 44 80 3a be 1f 53 22 be 0e 12 c8 bc ca 2e 0a 3e
       -0.18212992 -0.1585202 -0.024422672 0.13494411
0002e0 5b 62 1b bc 0a d7 81 bd 5d 57 ce bd ce bf 86 bd
       -0.009483899 -0.063398436 -0.10075257 -0.065795526
0002f0 a9 5e fd bc d9 f9 6c 3c 43 b8 77 bd 65 63 eb 3e
       -0.030928927 0.014463865 -0.06047846 0.4597427
000300 21 7f ed 3d 6f bf 60 3d 46 a7 ef bc fb 22 de bd
       0.115965135 0.054870065 -0.029254567 -0.10846516
000310 84 bb 8b bd 28 1c 10 3e d1 78 d9 be f2 8c c2 bc
       -0.06822875 0.14073241 -0.42474988 -0.023748849
000320 0c 14 80 3e 97 77 af be c6 16 02 be 62 07 99 3c
       0.25015295 -0.34270927 -0.12704 0.018680278
000330 89 4b 54 3d 8e 54 e4 3d 74 8f e9 3d 15 f0 31 3d
       0.05182985 0.1114894 0.11404315 0.04344185
000340 fb d2 a4 be f5 ce de 3d e4 81 41 3e 38 f3 ef 3d
       -0.32192215 0.10879318 0.18897206 0.11716312
000350 62 71 0f bd 63 5a 7f bd db 5e 43 bd 9d b8 b7 3d
       -0.03502024 -0.06234206 -0.047697883 0.08970759
000360 a8 07 8d 3e 54 db fc bd 17 77 20 3d 1f c7 23 3e
       0.27544904 -0.12346521 0.039176073 0.15993927
000370 4c af 6a 3d e7 77 af 3d b8 40 19 be 32 05 99 3c
       0.057296082 0.085677914 -0.14966094 0.018679235
000380 81 b4 73 3c cc ad be be 53 3c 3f 3e d8 ee 3e be
       0.014874578 -0.37241971 0.18675356 -0.18645799
000390 9a 36 e0 bd a2 d0 5e 3d da cb b2 bb 75 6c 98 bd
       -0.109479144 0.054398187 -0.00545643 -0.074425615
0003a0 70 a1 f1 bd 09 04 4a 3e 6e a9 3f 3d 48 23 bd be
       -0.1179837 0.19728102 0.04679244 -0.3694098
0003b0 d5 6e 20 bd 02 d4 6a be 12 9b 6e 3e 1d 0a 81 3d
       -0.039168198 -0.22932437 0.23301342 0.06300757
0003c0 3f c9 82 bc dd 9f 51 bd a0 cf 9c bd e0 5a 26 3d
       -0.015965102 -0.051177848 -0.07656789 0.04061401
0003d0 6b 9b 39 3e d2 8b f7 bd 99 8d fd 3c 08 34 8e 3c
       0.18125694 -0.120872155 0.030951308 0.017358795
0003e0 57 7f dd be a6 b0 82 be c6 7b 37 be de 06 a0 3d
       -0.43261215 -0.25525397 -0.1791831 0.0781381
0003f0 bc c8 cb bd 39 ed 2c 3e 9f 9a 95 bd d1 ad b1 3d
       -0.099503964 0.16887368 -0.07304882 0.08675731

fc2.bias f4 [128]
000000 46 fd 86 3e ff ad a2 be 83 80 8f be 60 d3 98 be
       0.26365107 -0.31773373 -0.28027734 -0.29848766
000010 74 9c 9c 3e e3 a5 b8 be a4 05 8e 3e 1f b4 e7 3d
       0.30588114 -0.36064062 0.27738678 0.11313652
000020 f6 b8 27 3e 32 ed 5d be b7 99 80 3e d8 38 b1 be
       0.16379151 -0.21672514 0.25117275 -0.3461368
000030 52 5e bf 3e 5d 0c 50 be eb e5 c1 be 46 8a 90 bd
       0.37376648 -0.20317216 -0.37870726 -0.070576236
000040 4c 99 df 3e c4 f8 37 3e 4f fe a3 bc 11 3f 14 3d
       0.43671644 0.1796599 -0.020018725 0.036192957
000050 b0 34 0f bc 23 8e 14 be ea 46 9f bd 3e b5 4d be
       -0.008740589 -0.14507346 -0.07777198 -0.2008867
000060 58 44 9a 3d c6 8e 82 3e c4 5a a7 be b8 e2 84 be
       0.07532567 0.25499552 -0.32686436 -0.25954223
000070 3f 1d 9e be b3 05 a4 be fe da 86 be 4e c7 17 bd
       -0.30881688 -0.32035598 -0.26338953 -0.037055306
000080 22 17 84 bd 72 6b 4b be d4 a9 6a 3e 2d 41 0b 3e
       -0.06449725 -0.19865206 0.22916347 0.13599081
000090 9d c2 87 be f1 67 b0 bd 52 78 90 be 09 5b e8 3e
       -0.26515666 -0.08613575 -0.28216797 0.45381954
0000a0 40 fd 55 3d e1 7c 32 be e6 70 a6 be 06 94 5f 3c
       0.05224347 -0.1743045 -0.3250801 0.013646131
0000b0 35 82 5a bd 38 52 32 be 2d f2 87 be 7e 24 91 3c
       -0.05334683 -0.17414176 -0.26551953 0.017717596
0000c0 a6 9c 1c 3d 2a 42 d5 be 24 ff b1 be 7b e9 59 3e
       0.03823533 -0.41652042 -0.3476497 0.21280472
0000d0 ac 1b 05 bf 70 df a2 3e b6 e6 11 bf 14 da d1 3e
       -0.5199535 0.31811094 -0.5699266 0.40986693
0000e0 21 4a 92 3d 9a 7a 68 be 38 a1 d1 3e 66 a5 a4 3e
       0.07143045 -0.22703019 0.40943313 0.3215744
0000f0 01 cd ce 3e b7 81 0d 3f 13 6a a3 be d9 01 b0 be
       0.4039078 0.55276054 -0.31916866 -0.3437641
000100 a6 75 b5 3e 65 07 85 3e 16 aa 42 be f3 a9 88 be
       0.3544132 0.25982204 -0.19010195 -0.2669216
000110 34 21 a4 be a2 d6 38 be 73 df a3 be 64 c0 60 be
       -0.32056582 -0.18050626 -0.32006416 -0.21948391
000120 17 07 8c 3e a7 d7 2c be 1f 97 b6 bb d7 f3 69 3e
       0.2734916 -0.1687914 -0.0055722143 0.22846924
000130 42 6b e6 3d ab 65 43 be b5 83 02 3f 9f 23 6b 3e
       0.112509266 -0.19081752 0.5098222 0.22962807
000140 f3 ff 44 be bd b8 26 be f5 a5 df 3e 61 44 cf be
       -0.19238262 -0.1628141 0.43681303 -0.40481856
000150 ee 5e 55 3e 1f 37 59 3e 6a a8 8c 3e 17 db 90 3e
       0.20836994 0.21212433 0.2747224 0.28292152
000160 dd dd 5a 3d 93 fd 95 be fc 40 71 be ba d3 6f be
       0.05343424 -0.29295024 -0.23559946 -0.23420611
000170 b2 8a b1 be 9a 4b 68 be 7f 7d c5 be 37 cf 97 be
       -0.3467613 -0.2268509 -0.38572308 -0.2965028
000180 2d a0 86 3e e2 ad b7 be 8d d4 fb bd c9 e3 6c be
       0.2629408 -0.3587485 -0.122964 -0.23133768
000190 5a c7 2a bd e4 e5 23 3f d5 bf 92 be bb f7 a0 be
       -0.041694023 0.6402266 -0.2866198 -0.31439003
0001a0 91 dc 8a bd 00 bb 70 be 2b 24 ff 3e cc 48 53 be
       -0.06780351 -0.23508835 0.4983228 -0.20633239
0001b0 bd 88 96 bd c6 ed a6 be 33 17 dc 3d 5c 3e 92 3e
       -0.073502995 -0.32603282 0.107466124 0.285632
0001c0 6d 72 05 3f ca 64 0b 3e b3 6d b5 be 2e 97 bb bd
       0.52127725 0.13612667 -0.35435256 -0.091596946
0001d0 8d 7f 2c 3e 21 62 5a be e4 1c 8d be 30 c2 c5 bd
       0.16845532 -0.21326496 -0.27561104 -0.09656179
0001e0 13 66 d7 be 25 35 d5 be a4 56 43 be 9e 8e 7c be
       -0.42070064 -0.4164211 -0.1907602 -0.24663779
0001f0 c1 21 98 be 23 57 40 3e 0e 6b 9d be 59 2a 8b be
       -0.29713252 0.1878324 -0.3074574 -0.27180746

fc3.weight f4 [1, 128]
000000 fe 16 fb 3d 58 f5 93 be de 84 1b be 31 7c 72 be
       0.12260245 -0.2889812 -0.15187404 -0.23680188
000010 c2 0c 02 3e 51 dc 03 be 85 88 ce 3d 8d 96 b6 3d
       0.12700179 -0.12877013 0.10084633 0.08915434
000020 0a ae e4 3d 57 b3 0b be 45 f5 6b 3d 92 0f 2b be
       0.11166008 -0.13642631 0.057606954 -0.16705158
000030 74 83 09 3e 5e 1f 31 3e c2 6a 06 be b2 6c 0e 3e
       0.13429052 0.17297122 -0.13126662 0.13908651
000040 16 73 eb 3d e8 84 8d 3d 48 38 ab 3d 93 a1 55 3d
       0.1149656 0.069101155 0.08360344 0.052156042
000050 97 25 0a 3e c7 05 02 3e 5a 89 08 3e 70 15 3a 3e
       0.13490902 0.12697516 0.13333645 0.1817224
000060 b6 dd 2d 3e 06 92 ea 3d 27 8b b6 be 4b 53 52 be
       0.16979107 0.11453633 -0.3565304 -0.20539586
000070 b3 66 7b be c0 b8 c8 bd 1e 46 86 3e b0 b7 32 3e
       -0.24550895 -0.09800863 0.2622537 0.17452884
000080 34 10 d0 3d e2 27 63 be 56 fd ab 3d 03 ef d0 3d
       0.101593405 -0.22183183 0.08397929 0.10201838
000090 1c 02 41 be e1 50 67 3e 1d 7c 59 be 75 ce 1f 3e
       -0.18848461 0.22589447 -0.21238752 0.15606101
0000a0 f6 cf 09 3e ae dd 22 3e 46 1c 17 be 46 52 c1 3d
       0.13458237 0.15904877 -0.14756879 0.094395205
0000b0 9b d2 81 3e 2a c1 01 be 73 a0 e5 bd 25 4f 07 3e
       0.25355992 -0.12671342 -0.11212244 0.13213785
0000c0 14 08 fa 3d ae 13 8a be 97 50 8c be 04 74 de 3d
       0.12208572 -0.2696814 -0.27405235 0.10861972
0000d0 87 77 c3 be 00 3e 12 3e 04 69 5c be 2d e4 11 3e
       -0.3817713 0.14281464 -0.21524435 0.14247198
0000e0 71 0e d7 3d ef 4d d4 bd a6 1b f7 3d ce 40 07 3e
       0.10500801 -0.10366427 0.120658204 0.13208315
0000f0 22 f1 08 3e ba e7 1c 3e 6e 48 0c be 17 f0 4f be
       0.13373235 0.15322772 -0.13699505 -0.20306431
000100 c1 e2 c7 3d bb 5d c0 3d 8a 93 e3 bd f4 80 ca bd
       0.09760047 0.09392878 -0.11112125 -0.09887877
000110 23 0e 1d be a4 2c 7e be f2 0e a0 be 9e 66 dd bd
       -0.15337424 -0.24821717 -0.31261402 -0.10810588
000120 87 c8 da 3d d9 f1 2e be ad 6b 22 3e 9b 98 14 3e
       0.10682779 -0.17084445 0.15861388 0.1451134
000130 15 e8 10 3e 4b 29 80 3e 90 f6 15 3e e5 e6 b5 3d
       0.14151032 0.25031504 0.14644837 0.0888193
000140 9c 25 35 be 58 55 f4 3d 87 a6 1f 3e da 3f f2 bd
       -0.17690128 0.119303405 0.15590869 -0.11828585
000150 34 98 ec 3d d3 fd ea 3d ec dc d3 3d 9b 0d 09 3e
       0.11552468 0.114741944 0.10344872 0.13384096
000160 82 36 c2 3d ee b2 08 be c7 da c7 bd 50 72 65 be
       0.09483053 -0.13349506 -0.09758525 -0.22406888
000170 82 3d f4 bd a1 b8 85 be 98 fa fb be e1 ca 28 be
       -0.11925794 -0.26117423 -0.49214625 -0.16483642
000180 f2 23 16 3e 70 43 44 be 4e d4 0e 3e 7e 3f 62 be
       0.1466215 -0.1916635 0.13948175 -0.22094533
000190 16 51 26 3e 2d 53 49 3e 0e 6f b0 be 2c bb 08 be
       0.1624187 0.19660635 -0.34459728 -0.1335265
0001a0 8a 12 23 3e 99 5b 4d 3e 67 ee 2a 3e 23 32 a9 3e
       0.15925041 0.20054473 0.16692506 0.33046064
0001b0 c2 68 ed 3d 54 73 47 be 41 dc f6 3d ea 36 b0 3d
       0.115922466 -0.19477588 0.12053729 0.08604224
0001c0 33 8e 3c 3e 3d c1 d3 3d b4 05 ce be 13 8a bf 3d
       0.1841362 0.10339592 -0.40238726 0.093525074
0001d0 dd 37 01 3e 4e 6c 2f be 4c 8b 7e be a9 87 1e 3e
       0.12618966 -0.17131159 -0.24857825 0.15481438
0001e0 9a 83 1e be c7 32 8c be 03 44 8b bd 63 d1 87 bd
       -0.1547989 -0.2738249 -0.068000816 -0.06631734
0001f0 62 d5 56 be 51 19 ca 3d 66 7b ff bd d5 12 03 be
       -0.20979837 0.0986811 -0.12474708 -0.12800153

bn1.weight f4 [128]
000000 2c 80 c2 3e ca ba d0 3e 5d 30 39 3f 26 4b fb 3e
       0.37988412 0.4076751 0.7233942 0.4908077
000010 67 82 e7 3e 45 ff 8b 3e 77 9c 68 3e 63 72 81 3e
       0.45216677 0.27343193 0.22715937 0.25282583
000020 a0 54 47 3e bd 75 fd 3e 65 a4 f7 3e ec 8c b4 3e
       0.19465876 0.4950389 0.4836761 0.35263765
000030 24 3e 19 3f 04 f1 06 3f 97 68 fc 3e 1a 60 0c 3f
       0.59860444 0.5271151 0.49298546 0.5483414
000040 79 4a 3a 3e 0f 9a 07 3f fe f2 0f 3f 50 a8 01 3f
       0.18192472 0.5296945 0.5623015 0.5064745
000050 05 5a bd 3e 7d 71 ec 3e a1 e2 c9 3e 3f 71 e2 3e
       0.36982742 0.46180335 0.39430717 0.44227025
000060 0f 91 ea 3e 23 43 94 3e db d1 23 3f 92 9c c9 3e
       0.45813796 0.2895747 0.6399209 0.39377266
000070 93 2a 90 3e 80 fd fa 3e f0 42 05 3f 87 ae cb 3e
       0.28157482 0.4902153 0.52055264 0.3978159
000080 6a 75 c7 3e 48 39 d6 3e 73 35 d8 3e 8e 89 eb 3e
       0.38956767 0.41840577 0.4222828 0.46003383
000090 97 9d 0c 3f 30 02 48 3e fe 4b 95 3e 70 eb 10 3f
       0.54927963 0.19532084 0.2915954 0.5660925
0000a0 46 e7 9a 3e b5 fb 26 3f af ba d7 3e 7a c8 9c 3e
       0.30254573 0.65227824 0.42134616 0.306217
0000b0 09 c2 f4 3e ab c6 2b 3f 39 b0 b8 3e 18 b6 02 3f
       0.47804287 0.6710002 0.36071947 0.51059103
0000c0 e9 77 14 3f 1a 81 c8 3e 9c f2 aa 3e 1c c0 57 3f
       0.5799547 0.39160997 0.3338822 0.8427751
0000d0 49 c9 6e 3e d3 78 09 3f 39 e5 c4 3e db 6f 4f 3d
       0.23318972 0.5369999 0.38456133 0.050643783
0000e0 8f fb bd 3e 81 8d b5 3e 1e e8 b6 3e 71 27 f9 3e
       0.37105986 0.3545952 0.35723966 0.48662904
0000f0 77 66 0a 3f 14 c4 03 3f 49 6f be 3e 71 ce d6 3e
       0.540626 0.51471066 0.3719428 0.41954377
000100 64 a5 34 3f fb 8b 81 3e 23 7a 27 3f 20 85 33 3f
       0.70564866 0.2530211 0.6542074 0.7012501
000110 15 8b d0 3e 51 b8 a8 3e 5b 92 eb 3e c0 33 c1 3e
       0.4073111 0.32953122 0.46010098 0.37734795
000120 4d 37 3e 3f 86 84 b9 3e 8e 06 07 3f b1 ad 6c 3f
       0.7430313 0.3623392 0.52744377 0.9245253
000130 47 27 2f 3f fd 41 91 3e 14 3d dd 3e 4e d4 03 3f
       0.6841931 0.28370658 0.4321066 0.51495826
000140 a3 ab b5 3e 92 a4 b9 3e 6f 99 24 3f 30 11 99 3e
       0.3548251 0.3625837 0.6429662 0.29895926
000150 7d 14 81 3d 64 78 0e 3f 7e 07 ee 3e 78 ae 4b 3f
       0.06302736 0.5565245 0.4649009 0.79563093
000160 0a 5f c7 3e 6e da b8 3e c4 35 8b 3e 1a 9f 0f 3f
       0.38939697 0.3610415 0.27189457 0.56102145
000170 13 02 c5 3e d3 4f 2b 3f eb bd 29 3f f9 63 ed 3e
       0.38478145 0.6691868 0.66305417 0.46365336
000180 5e 7d ec 3d 1b 2d 07 3f 36 68 0c 3f 2a ce 0d 3f
       0.115473494 0.528032 0.54846513 0.55392706
000190 56 10 9a 3e 0d 1b b7 3e 9f cb 04 3f 77 b6 1d 3f
       0.30090588 0.35762826 0.518732 0.61606544
0001a0 1b 6c e1 3e df 34 15 3f 2b 04 0a 3f a4 c7 81 3e
       0.4402779 0.582838 0.5391261 0.25347626
0001b0 07 4b 2b 3e 4b 3b 17 3f db d1 ad 3e a5 89 14 3e
       0.1672784 0.5907485 0.3394917 0.14505632
0001c0 88 92 f5 3e d1 85 08 3e fd 24 3b 3f a7 7a f0 3e
       0.47963357 0.13332297 0.73103315 0.46968576
0001d0 ba 61 cb 3e 30 1a d4 3e e7 ce cc 3e 9e 01 74 3f
       0.39722997 0.4142623 0.40001604 0.9531497
0001e0 01 72 06 3f 38 2b ad 3e 28 8e 7b 3e f8 e2 ca 3e
       0.52517706 0.33822036 0.24565947 0.39626288
0001f0 db cb 10 3f e9 d6 24 3e f0 79 95 3e cc af 19 3f
       0.5656106 0.16097607 0.29194593 0.6003387

bn1.bias f4 [128]
000000 b2 52 69 3d 92 d5 4b bd 87 6d de bc 8a ef 04 bc
       0.05696363 -0.049764223 -0.027151836 -0.008113751
000010 65 a4 29 be ef 23 09 bd 96 93 6d be af c1 70 3e
       -0.16566618 -0.033481535 -0.23200831 0.23511384
000020 21 2f 92 3e f1 4f 87 3d 19 16 0b 3e fa ae 89 be
       0.28551582 0.066070445 0.13582648 -0.2689131
000030 88 20 fc bd 12 2a 89 3d e1 5b c5 bd 6b cc 40 3d
       -0.12310892 0.066974774 -0.09636665 0.04706995
000040 99 9f c9 be 4f 51 37 3e 1e a1 94 3d 7d 3d 7e 3c
       -0.39379576 0.1790211 0.07257293 0.01551759
000050 d2 59 16 39 d9 43 23 be d6 a5 82 be a0 ee 0d bd
       0.00014338575 -0.1594385 -0.25517148 -0.0346514
000060 2f 74 13 3e 29 c0 04 be 4b 5c 02 be 1a 25 07 3e
       0.1439979 -0.12963928 -0.1273052 0.13197747
000070 bb 92 ba bd a9 3c a1 bc 4c 49 19 be 5f 95 ae 3d
       -0.09110018 -0.019682245 -0.14969367 0.08524584
000080 fb 76 c5 3d 11 12 38 3d 90 7b 68 3e 58 3c 8e bc
       0.09641834 0.044939104 0.22703385 -0.017362759
000090 6c 3b 85 3e 8e 06 be 3e c1 6d 16 3e a9 78 af 3e
       0.26021898 0.37114376 0.14690305 0.34271744
0000a0 59 c1 98 be 47 29 73 3b 63 77 18 3e e5 b9 ad bd
       -0.29835013 0.003710346 0.14889292 -0.08482722
0000b0 51 7e 61 3c db 3a 5c bd 77 03 e1 3d 94 ab 9a bd
       0.013763026 -0.053767066 0.10986989 -0.07552257
0000c0 db 20 b0 3d 50 21 49 3e 00 fe 2a 3e 0d 7b a7 3c
       0.08600017 0.19641614 0.16698456 0.020444417
0000d0 c0 da 97 3d 2f 6f 30 3d 3d a7 a3 3d 69 2a 0c bf
       0.0741477 0.043074783 0.079908825 -0.5475221
0000e0 11 c8 3f bd bb da 35 3e af 86 10 bd 41 d2 6e bd
       -0.046821658 0.1775922 -0.035284694 -0.058305983
0000f0 26 ef 6e 3e 30 c5 ae 3c 7c f3 3c be 07 f2 f7 bd
       0.23333415 0.02133426 -0.18452257 -0.1210671
000100 ff 11 32 3e bb aa 85 be 24 d4 c3 bd 38 81 52 be
       0.17389677 -0.2610682 -0.09561947 -0.20557106
000110 79 ad 6c be 71 3b 30 be b5 cc c0 3d c4 c0 d2 bc
       -0.2311305 -0.17210175 0.09414045 -0.025726683
000120 cb c8 b5 bd e3 bb 24 be 4f 7a 88 3e 8a ad 92 3d
       -0.08876189 -0.16087298 0.26655814 0.07162006
000130 9a f7 57 3d 23 3a 66 bd 52 b5 6e 3e 5e db d7 3c
       0.052726366 -0.056207787 0.23311356 0.02634972
000140 2d 07 55 3c 13 0e ce bd 09 a6 d7 3c 89 fd 32 3e
       0.013002199 -0.10061278 0.026324289 0.17479528
000150 37 3d 03 bf dd ed c0 3e cf c1 13 bd 50 34 43 3d
       -0.5126528 0.37681475 -0.036073502 0.04765731
000160 c4 9a bc bd 95 e9 b7 3b f5 15 21 be 18 d1 83 be
       -0.09209207 0.005612562 -0.15731032 -0.25745463
000170 c8 3b be bd a6 cb a4 bd 6d 2c 25 3e cc 33 5a 3e
       -0.09288746 -0.08046655 0.16130228 0.21308821
000180 4e 10 e3 3e 50 b2 f1 bd 59 db 9e bd 48 e9 22 be
       0.44348377 -0.118015885 -0.07756681 -0.15909302
000190 ea ff 12 3e dd 3e ea 3d bc 92 68 3e d7 42 00 3e
       0.14355436 0.114377715 0.22712225 0.12525497
0001a0 9a a4 40 3d 24 69 1c be f8 e4 00 bd 39 bd f1 bd
       0.047031976 -0.15274483 -0.03146836 -0.118036695
0001b0 d2 7e be 3e d5 c5 a3 3c 25 85 bb 3c 02 22 ab be
       0.3720613 0.019991795 0.022890637 -0.33424383
0001c0 6b 3e e1 3d 3e eb 75 be f6 62 ea 3c 39 cc cd 3d
       0.109982334 -0.24015519 0.028611641 0.10048718
0001d0 18 de 85 3e 28 e8 10 3e e9 3e 85 bc b6 53 5c be
       0.26146007 0.1415106 -0.01626535 -0.21516308
0001e0 0b f3 33 3e df 24 e6 3d a8 8a 70 be 17 d8 2d 3d
       0.17573182 0.11237501 -0.23490393 0.042442407
0001f0 f1 af 17 be 21 a6 6f be 9e 4f a9 bd dd 5a 03 3e
       -0.1481321 -0.23403217 -0.08267139 0.1282763

bn1.running_mean f4 [128]
000000 11 9f 29 3e 25 d2 c6 3e c7 0e 22 3f 63 a7 8a 3e
       0.16564585 0.38832203 0.633038 0.2708083
000010 07 1c 62 3e 1a 14 7a 3e 23 de 0d 3f ce 3d d0 3d
       0.22081004 0.2442173 0.5541708 0.10168038
000020 ed 40 88 3e a4 a2 d6 3e 36 69 0e 3e 61 61 69 3e
       0.26612034 0.4192096 0.13907322 0.22791053
000030 18 a7 58 3e a2 b3 22 3f cb 52 d0 3e 84 49 4a 3e
       0.21157491 0.6355535 0.40688166 0.19754606
000040 ee 4a 22 3e 6d 37 1c 3f c0 2b 00 3e 51 bc 77 3e
       0.15848896 0.61022073 0.1251669 0.24192931
000050 36 1d c1 3e f2 46 07 3e 09 d2 80 3e b5 58 3f 3e
       0.377176 0.13210657 0.25160244 0.18686183
000060 f0 8f 03 3e 2f 81 06 3e 29 c6 77 3e b8 64 60 3e
       0.12847877 0.13135217 0.24196686 0.21913421
000070 77 a3 ba 3d 5a fe 8a 3e d8 15 a0 3e c5 ac 54 3e
       0.0911321 0.2714718 0.31266665 0.20769031
000080 28 9f 39 3f 01 07 60 3d 06 97 e6 3e a9 e1 e0 3d
       0.7250848 0.05469418 0.45037097 0.10980541
000090 db 71 00 3e 79 ea 72 3e 1e 47 6e 3d eb 33 41 3f
       0.12543432 0.23722257 0.05817329 0.75469846
0000a0 13 65 45 3e 28 6a 48 3e 95 28 a4 3e 08 ad 24 3e
       0.19276838 0.19571745 0.32062212 0.16081631
0000b0 ff 20 02 3e 03 f1 83 3e 15 11 db 3e 0f 46 f5 3e
       0.127079 0.25769815 0.4278647 0.47905013
0000c0 ac fe 1f 3f ef 5c 25 3e cc 3c 08 3f 08 09 9f 3e
       0.62497973 0.16148733 0.5321777 0.31061578
0000d0 d9 29 a2 3e 73 a2 64 3e 1f 15 35 3e 9b cd 39 3f
       0.31672552 0.22327594 0.17683838 0.72579354
0000e0 b4 7f 80 3e 95 16 92 3e f2 65 87 3e 4d 20 fb 3e
       0.2509743 0.28532854 0.26444966 0.4904808
0000f0 be ca bf 3e 76 45 44 3e 4c 9b 86 3e aa 12 01 3e
       0.37459368 0.19167122 0.26290357 0.12604776
000100 3d 74 99 3e a0 83 28 3e b0 98 68 3e 68 0e 44 3e
       0.29971495 0.16456461 0.22714496 0.1914612
000110 9f e9 8a 3e 06 9e a9 3e c7 db b1 3e c1 4e 0f 3e
       0.27131364 0.33128375 0.3473799 0.13994886
000120 cb 33 44 3e 36 c1 44 3e e1 bc 0a 3e 03 bd 01 3e
       0.19160382 0.19214329 0.13548614 0.12669758
000130 3f e6 3e 3e 91 56 a7 3d e8 87 01 3f 72 23 89 3e
       0.1864252 0.08170808 0.50598 0.26784855
000140 72 e7 ac 3e a9 c4 82 3e 89 4b 0a 3e ad 89 69 3e
       0.3377033 0.25540665 0.13505377 0.22806425
000150 5e 5b 79 3e 9d a6 40 3f f1 62 a9 3d 62 76 8a 3e
       0.2435126 0.7525423 0.08270825 0.27043444
000160 4b 1e 24 3e c0 9b 73 3f 8b c0 91 3d 22 dd 3c 3e
       0.16027181 0.9515953 0.07116803 0.1844373
000170 81 eb 76 3e 6c 5c 09 3e 0b 03 f5 3e 5a 7d 87 3e
       0.24113275 0.13414162 0.47853884 0.26462823
000180 05 3a 2a 3e 94 71 11 3e b0 e4 8f 3e 19 af 75 3e
       0.16623695 0.14203483 0.28104162 0.23992576
000190 34 04 91 3d b7 93 44 3e dc 10 a9 3e 41 ce b3 3d
       0.0708088 0.19196974 0.33020675 0.08779574
0001a0 96 fb 4a 3e 87 9e 5c 3e 6a ff 19 3e f6 d2 c5 3d
       0.19822535 0.21544848 0.15038839 0.09659378
0001b0 ae e5 30 3e 15 2e 05 3e da c4 c7 3e b7 58 af 3e
       0.17275116 0.1300586 0.39017373 0.34247372
0001c0 f1 d0 16 3e ba 76 ed 3c 40 b9 48 3e 74 a4 69 3e
       0.14728142 0.028987277 0.19601917 0.2281664
0001d0 f0 22 1e 3f 0b f8 08 3f cd 7f ed 3d 34 0a bb 3e
       0.6177206 0.53503484 0.11596642 0.36531222
0001e0 94 80 1a 3e 2b 6e 81 3e c3 3b 58 3e ad 9d fe 3d
       0.15088111 0.25279364 0.21116547 0.12432418
0001f0 05 37 77 3e 9e 2a c5 3e 07 8a d2 3e 14 c0 98 3e
       0.24142082 0.38509077 0.41120932 0.29834044

bn1.running_var f4 [128]
000000 bf 16 13 3e 34 ee a2 3e 71 0d e0 3e d1 bd 2d 3e
       0.14364146 0.3182236 0.43760255 0.1696694
000010 e2 59 97 3d 47 ba 68 3e a6 ce 35 3f 7b 8c 96 3d
       0.07390191 0.22727309 0.71018445 0.07351013
000020 e0 d4 29 3e c9 83 bf 3e 6c 05 a5 3d fd f2 8d 3d
       0.16585112 0.37405232 0.08057675 0.06931112
000030 8c ba 42 3e fa a2 9a 3e a0 7a bb 3e dc 95 f7 3d
       0.19016474 0.30202466 0.36616993 0.1208913
000040 29 c1 ba 3d 7d 66 d6 3e 98 02 9b 3d 29 19 0e 3e
       0.091188736 0.41875067 0.07568854 0.13876785
000050 62 84 b0 3e 24 98 8d 3d 47 6e 36 3e 35 6e e3 3d
       0.34476 0.06913784 0.17815505 0.11105005
000060 20 6e b5 3d 94 ee 94 3d c0 30 35 3e a2 f5 1a 3e
       0.08858895 0.07272068 0.17694378 0.15132764
000070 c4 03 54 3d 83 d6 37 3e 69 e9 4f 3e 18 47 15 3e
       0.051761404 0.17952923 0.20303883 0.14577901
000080 84 8a 51 3e e9 64 f9 3c 8d de ab 3e 8f 6b 93 3d
       0.20462996 0.030443626 0.3356823 0.071982495
000090 56 af 98 3d 2e 79 10 3e 15 81 1a 3d d4 f8 4e 3e
       0.07455318 0.14108726 0.03772076 0.20212108
0000a0 29 75 38 3e 5d 5e c6 3d 9c 2a 8c 3e 3e 38 ea 3d
       0.18013443 0.09685967 0.27376258 0.114365086
0000b0 1c 15 d2 3d fb d3 3f 3e 6b b5 ee 3e 00 5b d8 3e
       0.102579325 0.18733208 0.46622786 0.42256927
0000c0 88 5d d3 3e 75 de ac 3d 7b 60 02 3f e1 ab 83 3e
       0.41282296 0.08440868 0.5092847 0.2571707
0000d0 e6 b5 80 3e 23 5a f5 3d 36 f2 13 3e 4c 11 72 3f
       0.25138777 0.11980083 0.14447865 0.9455764
0000e0 56 66 2a 3e 93 0a 25 3e df 77 1f 3e a9 8c b2 3e
       0.166406 0.16117315 0.15573071 0.3487294
0000f0 a0 74 5e 3e 40 b9 ef 3d 2d 0f 50 3e 06 5f 98 3d
       0.21724176 0.117052555 0.20318289 0.07439999
000100 8f 7e 6c 3e c3 63 e0 3d f6 fc 20 3e 00 4c 1b 3e
       0.23095153 0.10956528 0.15721497 0.1516571
000110 a5 17 87 3e 28 85 9a 3e 58 60 6b 3e 60 27 a4 3d
       0.26385227 0.30179715 0.22985971 0.08015323
000120 ad 09 f9 3d be 00 ca 3d 7c 50 83 3d b7 69 93 3d
       0.12160049 0.09863423 0.064118356 0.07197898
000130 bd 34 e6 3d 6c b0 5c 3d 64 a4 7b 3e 35 a0 f0 3d
       0.11240528 0.053879187 0.24574429 0.11749307
000140 50 20 93 3e 59 95 16 3e 5f b6 93 3d 31 f2 03 3e
       0.2873559 0.14705409 0.07212519 0.12885357
000150 fe c2 3e 3e 8f 61 c3 3e 81 73 02 3d 4c 50 f1 3d
       0.18629071 0.3816037 0.031848434 0.117828935
000160 0a 12 04 3e 8a 37 70 3f 8a ac 0d 3d 8a a5 f3 3d
       0.12897506 0.93834746 0.034588374 0.118968084
000170 ce ff 66 3e c5 02 bd 3d cd c3 4b 3e be 17 1a 3e
       0.22558519 0.09229044 0.19898911 0.1504812
000180 c5 e9 cb 3d 55 02 c1 3d 05 21 14 3e b2 af f3 3d
       0.099566974 0.09424273 0.14465721 0.118987456
000190 8c 3c d8 3c d1 28 da 3d 53 42 85 3e c0 12 47 3d
       0.026396058 0.10652316 0.26027164 0.048601866
0001a0 42 dc f8 3d e7 4a bf 3d 7d 02 ce 3d f3 06 83 3d
       0.12151386 0.09340458 0.10059068 0.0639781
0001b0 3b e7 f0 3d 87 23 c0 3d ff d5 a4 3e c4 3e a4 3e
       0.11762854 0.09381776 0.32194516 0.32079136
0001c0 77 5f 81 3d 3d 7c 7b 3c f2 62 fe 3d b0 2d fe 3d
       0.063170366 0.015349445 0.12421216 0.12411058
0001d0 77 7c 6b 3e 9e 94 c4 3e cb d1 b2 3d ae 4c 97 3e
       0.22996698 0.38394636 0.08731421 0.2955069
0001e0 d1 65 b9 3d 9b 1c 23 3e ba 61 25 3e 01 a0 91 3d
       0.09052623 0.15928881 0.16150561 0.071105964
0001f0 48 1a 3b 3e b3 0b d9 3e ee 10 b1 3e b8 3d 36 3e
       0.18271744 0.42391738 0.3458323 0.17796981
